models/lenet-sgd.pth (torch, 263623 bytes, 10 tensors)

weight f4 [6, 3, 5, 5]
000000 a5 eb 61 3e 4c 93 94 3e 2c d1 e7 3d cd 49 0d 3e
       0.22062548 0.2901863 0.11319193 0.13797684
000010 3c 78 2e 3d bf 57 93 3e af 56 b7 3e 59 bb 99 3e
       0.042595133 0.28777882 0.35808322 0.30025747
000020 08 11 c3 3e 76 bb 94 3e 1e dc 68 3e 88 aa 9d 3e
       0.3809893 0.2904927 0.22740218 0.30794168
000030 ec 00 90 3e af 50 8b 3e 60 de c6 3e ba 42 6c 3e
       0.28125703 0.27209994 0.38841534 0.23072329
000040 5a 9b 8b 3e 9c 42 e5 3e a4 e0 c5 3e b1 c5 ae 3e
       0.2726696 0.4477738 0.3864795 0.34135202
000050 86 55 41 3e 7d bd 63 3e 87 6b 80 3e c1 70 ca 3e
       0.18880281 0.22240253 0.25082037 0.3953915
000060 77 4c a5 3e 2e ab 14 3e ab 32 8b 3d c1 e3 9e 3c
       0.322849 0.14518425 0.067967735 0.01939571
000070 db 10 36 3e 80 19 a9 3d 0e 37 ca 3d f9 3b 3c 3e
       0.17779867 0.08256817 0.09873782 0.18382253
000080 1d e6 07 3e d0 7c 65 3e fc 1b 43 3e 64 82 c6 3d
       0.13271375 0.22410893 0.19053644 0.09692839
000090 54 d7 61 3e 20 26 3a 3e e2 73 99 3e 6a 25 7e 3e
       0.22054797 0.18178606 0.29971224 0.2481896
0000a0 c1 10 36 3e e2 de c3 3d f1 2e 4f 3e 5d 5c 2c 3e
       0.17779829 0.09563996 0.2023275 0.16832109
0000b0 fc fe 87 3e 12 60 37 3d 0d ef 38 3d 73 2f 35 3d
       0.26561725 0.044769354 0.04514985 0.044234704
0000c0 ac b6 5c 3e ce 16 42 3e cc 00 8c bd 62 72 05 be
       0.21554059 0.18954012 -0.068360895 -0.13031915
0000d0 8b 6d ee bd 3d 87 d0 3b dd 21 74 be 67 63 13 3c
       -0.116419874 0.006363778 -0.23841043 0.008995867
0000e0 6e b0 3a bd 09 ba 75 3d 62 20 17 bc 4b ff 0a be
       -0.045578413 0.05999187 -0.009224029 -0.13573949
0000f0 a7 e1 00 bc 13 36 e6 bd 07 07 68 bc 4b 1b fc 3d
       -0.0078663 -0.112407826 -0.014161832 0.12309893
000100 15 cf a6 3d e0 86 39 be ba 4d 0b be 6b 23 b0 bd
       0.081449665 -0.18117857 -0.13603869 -0.086005054
000110 b7 bf 90 3d d9 7d 11 3d 55 7a 1a be f0 02 42 be
       0.07067817 0.03552041 -0.15085728 -0.18946433
000120 7e 3c 7f bd ce 30 ad bd a8 7e ae 3d 70 01 c8 bd
       -0.06231355 -0.084565744 0.085202515 -0.09765899
000130 e0 64 e1 3c 3f f5 07 be 2e 53 a1 bd f0 29 85 be
       0.027513921 -0.13277148 -0.078771934 -0.26008558
000140 d9 3d b7 3d 43 a1 50 3e b7 71 26 3e c0 54 06 3e
       0.089473434 0.20374016 0.16254316 0.13118267
000150 f3 e1 1a be 39 07 83 3e bc d2 c8 3e 1b 80 8d 3e
       -0.15125255 0.25591448 0.39223278 0.276368
000160 15 7c 38 3e 2e 5b 15 3e e2 d7 92 3e 23 a3 ab 3e
       0.18016084 0.14585564 0.2868033 0.335229
000170 a2 77 ce 3e 66 84 b4 3e 80 40 e1 3c c7 6d 92 3e
       0.40325648 0.35257262 0.027496576 0.28599378
000180 90 a3 9e 3e 25 82 92 3e b9 4e 91 3e 2b 72 0a bc
       0.30984163 0.28614917 0.28380373 -0.008450071
000190 f5 2d cb bd e8 38 a9 3d 38 59 75 bd 18 f9 6d 3c
       -0.09920875 0.08262807 -0.05989954 0.014524721
0001a0 82 34 47 be 4c a5 b9 3d 4f 39 05 3e e3 c9 23 3e
       -0.19453624 0.09064731 0.13010143 0.15994982
0001b0 97 14 4c 3e 81 0c fe 3d d8 0c 4c 3e da e5 e0 3e
       0.1992973 0.12404729 0.19926775 0.43925363
0001c0 af 6d b6 3e 91 0b b1 3e a3 5b 31 3e 8d 13 9f 3e
       0.35630557 0.34579137 0.17320113 0.31069604
0001d0 31 ff d2 3e cc 0c 0b 3f 98 20 b5 3e 48 bd c8 3e
       0.4121032 0.543164 0.3537643 0.3920691
0001e0 e7 96 6f 3e 29 66 c2 3e 58 43 eb 3e eb 6b d2 3e
       0.23397408 0.37968567 0.45949817 0.4109796
0001f0 2a aa 9e 3e 27 73 93 bc bc 2d a2 bd 64 23 0f bd
       0.309892 -0.017999245 -0.079188794 -0.03494586
000200 c9 e9 05 be d0 60 81 bd fc 83 fe 3d 09 c2 69 3e
       -0.13077463 -0.06317294 0.12427518 0.22827925
000210 3e 48 59 3e 8c 99 fa 3d fa 35 0d 3e 5f 5c 88 3e
       0.21218964 0.12236318 0.13790122 0.26632974
000220 7d 6f d1 3e d5 bd 06 3f df 6b d1 3e c6 a0 b6 3e
       0.4090537 0.5263341 0.40902612 0.35669535
000230 ff 1d 38 3e ab 7e 90 3e 26 fc e7 3e 2a bb c8 3e
       0.17980193 0.2822164 0.45309561 0.39205295
000240 87 f7 7c 3e 63 a1 83 3e fc fe 40 3e c9 7d ed 3e
       0.24703799 0.25709066 0.18847269 0.4638503
000250 7a d5 d5 3e 57 64 55 3e c9 d9 3f 3d 16 a0 0a bc
       0.41764432 0.20839058 0.046838555 -0.008461019
000260 1d 02 4c bc ee ff 09 3e 08 70 de bd 1d 29 4f 3e
       -0.012451676 0.13476536 -0.10861212 0.20230527
000270 1d 06 18 3e bd 1e b3 3e 16 46 ec 3d 11 79 0d 3c
       0.14846082 0.3498439 0.11536805 0.0086348215
000280 fe f8 15 3e cc 0d 90 3e 74 66 6f 3e 83 c2 af 3e
       0.14645764 0.28135526 0.23378927 0.34328088
000290 ca 21 a8 3d b6 fa 3b 3e 1e 85 2e 3e 96 c4 b8 3e
       0.0820957 0.18357357 0.17042968 0.36087483
0002a0 2d 0f 1d 3e ea 45 82 3c a3 2a a1 bd 4c 31 a7 3d
       0.1533782 0.015902478 -0.078694604 0.081636995
0002b0 13 13 61 3e 2e 44 eb 39 6b d1 cd bc 3f 8d cd 3d
       0.21979932 0.0004487349 -0.025124272 0.10036706
0002c0 22 ff f0 3d d3 d7 e1 3d b0 a6 b6 3d 17 f3 97 3c
       0.11767413 0.11027493 0.08918512 0.018548531
0002d0 ce 63 3d 3d b2 89 ba 3e a6 cc cf 3e 3d 68 8a 3e
       0.04623776 0.36433178 0.40585822 0.27032652
0002e0 8f 29 02 3e 85 14 33 3e 71 4c c6 3e 31 79 11 3f
       0.12711166 0.17488296 0.38730195 0.5682555
0002f0 1e ed 0e 3f cc eb ac 3e 99 ac 31 3e 73 97 96 3e
       0.5583056 0.3377365 0.17350997 0.29412422
000300 84 fd d7 3e 41 e7 fc 3e 5e d2 59 3e 39 7c 7a bc
       0.42185605 0.49395183 0.21271655 -0.015288406
000310 5a 61 77 3e ed 94 98 3e 93 33 2c 3e 6e d5 bd bc
       0.2415823 0.2980112 0.16816549 -0.02317306
000320 cb c4 23 3e 13 08 82 3e d3 71 5d 3e 8d 60 04 3e
       0.1599304 0.25396785 0.21625452 0.12927456
000330 fc 8e 1c 3e a0 69 89 3e 3d 86 ce 3e e6 d7 b6 3e
       0.15288919 0.26838398 0.4033679 0.35711592
000340 eb 5e de 3e 9d 6d 7b 3e 21 9c 9a 3e 88 54 d8 3e
       0.43431792 0.24553533 0.30197242 0.42251992
000350 00 f4 f2 3e 73 b9 04 3f 86 c1 92 3e 60 64 7c 3e
       0.47451782 0.51845473 0.28663272 0.24647665
000360 01 89 6c 3e 21 93 e0 3e 95 f3 f7 3e df 11 9c 3e
       0.23099138 0.4386225 0.48428026 0.30482385
000370 36 b1 86 3d 4e 46 c8 3d b2 17 c4 3e 2a 7c ac 3e
       0.06576769 0.097790346 0.38299328 0.3368848
000380 7f 28 67 3e ec 9d b9 3c 42 42 b6 bd 5f ba 87 bd
       0.22574042 0.02265831 -0.088993564 -0.06627344
000390 b1 8f 6f 3b 0e f4 19 be 29 72 87 3c 25 9f 3b 3c
       0.0036554153 -0.15034506 0.016533928 0.011451517
0003a0 55 d5 9a bd 43 a8 94 3d 6c 1b 0b be 4c 18 97 3b
       -0.07560221 0.07258656 -0.1358468 0.0046110507
0003b0 a1 ae d1 3d 9d db 37 3e 99 34 c1 3d f8 2f 47 bd
       0.10238386 0.1795487 0.0943386 -0.04862973
0003c0 38 58 2b 3e da 39 db 3d aa eb c9 3d 70 16 f1 ba
       0.16732872 0.10704394 0.098594025 -0.0018393528
0003d0 a8 01 92 bc f7 57 38 3e e1 6c 41 3d bd e5 56 3d
       -0.017823055 0.18002306 0.047222976 0.05246519
0003e0 bb 77 10 3e 6c 77 f5 3d dc bc 3b bd 5b ca 84 bd
       0.14108174 0.119856685 -0.045834407 -0.06483909
0003f0 7d ee 96 bd 1b 8d a6 bd 53 29 05 bd d5 bb a3 ba
       -0.07369707 -0.081323825 -0.032510113 -0.0012491891

bias f4 [6]
000000 4a 6e 6b 3e 7a 88 49 3e 48 83 f1 3d c3 1f 37 3e
       0.2299129 0.19680968 0.11792618 0.1788321
000010 64 b1 f6 3d f6 37 a8 bc
       0.12045553 -0.020534497

weight f4 [16, 6, 5, 5]
000000 dc 5e a5 bd 4d 57 68 bd 56 08 95 3d a8 28 8a 3d
       -0.080747336 -0.05672388 0.072769806 0.06746036
000010 d8 b6 6c bd 52 1d 08 3b de 9a 50 bd d3 45 a0 bd
       -0.05779156 0.002076943 -0.050928943 -0.07825818
000020 6e 77 86 3d 66 05 42 3d d1 9a e0 bc 2d 04 9e bd
       0.06565748 0.04736843 -0.027417572 -0.0771564
000030 9a d7 81 bd 34 74 95 bd 71 9f 74 3d ea 50 8a bc
       -0.06339951 -0.072975546 0.059722368 -0.016884286
000040 cb ea 01 bd 81 f7 5d bc f8 94 3e 3d ef 4a 4e bd
       -0.031718057 -0.013547779 0.046528786 -0.05036443
000050 f7 4b 5f bd 29 8e 2d bc dd 88 82 bc f8 f2 61 3b
       -0.054515805 -0.010592976 -0.015934402 0.0034477096
000060 73 45 9e 3c 6e 79 73 3d a0 9e d2 3c 50 c2 9a bd
       0.019320225 0.059441976 0.025710404 -0.075565934
000070 bd fa d3 bc 18 f5 79 3d 27 1b 93 bd 16 63 15 3d
       -0.025876397 0.061024755 -0.07182913 0.03647145
000080 7a e0 57 3b 4a 04 2d 3c 55 c1 6f bd b4 19 9f bd
       0.0032940195 0.010560105 -0.058533985 -0.07768574
000090 44 0a 71 3d 07 d2 95 3d 03 6e ef bc 28 4c 8b bd
       0.05884768 0.0731545 -0.029227262 -0.06801635
0000a0 da 44 67 bd 57 42 9a bd 54 d4 90 3d 3b 51 9d bc
       -0.056462146 -0.075321846 0.070717484 -0.019203773
0000b0 bd 05 33 bd 4c d4 d2 3c 78 fb 04 3d 2d db 5f bc
       -0.043706644 0.025735997 0.03246638 -0.013663095
0000c0 f6 76 18 bd dd 37 8a bd 46 3b 7f bd ba 4e c4 bc
       -0.037222825 -0.06748936 -0.062312387 -0.023963321
0000d0 dc 5d 24 bd 9c b8 17 bd a9 fa 0b bc ec 38 cb bc
       -0.040128574 -0.03704129 -0.008543649 -0.024807416
0000e0 1e 63 29 3d a8 2e be bc ae f5 7d bd a4 4d d4 bb
       0.04135429 -0.023215607 -0.062001877 -0.006478982
0000f0 d8 8e 6b bc 9a 35 d6 bc b6 6c 88 3d 32 49 a3 bd
       -0.014377318 -0.026148606 0.0666136 -0.07972945
000100 bf 3f 61 bd 89 19 7d 3d f7 11 06 bd 2d 83 8f 3d
       -0.054992434 0.06179193 -0.032731976 0.07007442
000110 1f f1 31 bd 1c 54 92 3d 26 c2 30 bd 9c f9 59 bc
       -0.04344284 0.07144949 -0.043153904 -0.01330414
000120 c1 77 92 3d fb 4b 4c 3c 7d e0 97 bd 38 7f 12 3d
       0.071517475 0.012469287 -0.074158646 0.035765857
000130 fc 8f 98 bd d8 71 06 3d 9c 71 da bc 3d 9e fe 3b
       -0.07449338 0.032823414 -0.026665501 0.0077703283
000140 16 88 5b bc 20 3a 54 bd de 3b e5 bc 16 b9 41 3d
       -0.013399145 -0.051813245 -0.027982648 0.047295652
000150 d1 75 50 3d 1e c1 1e bd c9 55 59 3d 03 79 1e bd
       0.05089361 -0.03875839 0.053060327 -0.038689625
000160 b2 ea 06 3c a5 c5 a4 3d 23 b6 9b bc 71 62 03 bd
       0.008234667 0.0804551 -0.019007748 -0.032076303
000170 cf b9 0e bd e2 88 a5 bd 03 2b 65 3d cc 26 82 3c
       -0.03484517 -0.08082749 0.055949222 0.01588764
000180 0e c9 a4 bd 7c 1d 82 bc 65 a4 96 bd 6c 5c 90 3d
       -0.08046161 -0.0158832 -0.073555745 0.07048878
000190 03 24 a6 3d 08 75 90 3d 46 fd 00 3c 70 c1 9a bc
       0.081123374 0.07053572 0.007872885 -0.018891066
0001a0 61 ec 07 bb ea 91 e5 3c 59 fe da bb b5 7c 9f bd
       -0.0020740258 0.028023679 -0.0066831526 -0.07787458
0001b0 d4 0a 87 3d 6c 78 02 bd 5a 57 91 3d 3b dd 81 3d
       0.06593862 -0.031853124 0.07096739 0.063410245
0001c0 e7 6b 80 bd f8 11 3a bb ae 08 ba 3b f9 13 33 bd
       -0.06270581 -0.0028392058 0.005677304 -0.04372022
0001d0 39 c7 bd bb 85 71 05 3a 98 d1 48 bd e7 90 82 bd
       -0.0057915715 0.0005090463 -0.04902801 -0.06375294
0001e0 57 9b 89 3d 92 21 14 3d cb 71 0f bb c7 88 6c 3d
       0.06719082 0.036164828 -0.0021887894 0.05774763
0001f0 df 84 34 bd b6 c8 19 bd e0 20 00 bc c5 17 58 3b
       -0.04407203 -0.03754493 -0.007820338 0.0032973152
000200 6c 9d a8 bc 5f 39 c8 3a 6d 3f 1c bd 3e 20 96 bd
       -0.020582877 0.0015275887 -0.038146425 -0.073303685
000210 7e 19 38 ba 54 40 47 bd 63 cf 9d bd 24 06 99 bc
       -0.00070228416 -0.048645332 -0.077055715 -0.018679686
000220 9e fe 21 bd 9b 94 fd 3c 8f 17 0f bd 3a 04 9c 3d
       -0.039549462 0.03095465 -0.034934577 0.07617994
000230 42 01 56 3d 52 61 40 3d 8a 8e 11 3d 6d d4 38 3c
       0.052247293 0.046967812 0.035536326 0.011281115
000240 2d ac 93 bd 45 22 16 bd 24 ab 13 ba 12 39 99 3c
       -0.07210574 -0.036653776 -0.0005633107 0.018703971
000250 2d 17 91 bd be 3b 3c bd 2a f6 ff 3d 21 15 fe 3d
       -0.070844986 -0.045955412 0.12498124 0.12406374
000260 d5 a3 c1 3d 21 73 45 3e 06 a9 80 3e 3f ef 3b 3e
       0.094550766 0.192822 0.25128955 0.18352984
000270 11 f8 43 3e b8 b7 f3 3d 93 7c 9b bd 2b cf 3d 3d
       0.19137599 0.11900276 -0.0759212 0.04634015
000280 3f ec 44 3e 0e 2d 86 3e 1a 7b 59 3e ab 4f 97 3d
       0.19230746 0.2620625 0.21238366 0.07388242
000290 14 77 61 bd 3c d0 45 3d 8d da 9f 3e aa bf 9e 3e
       -0.055045202 0.04829429 0.3122143 0.31005603
0002a0 3a 2c bb bb cc 4d de 3c b4 71 9e bd 23 1a 09 bc
       -0.0057120593 0.027136706 -0.07736531 -0.008368048
0002b0 16 72 a6 ba 20 2d 18 3e 27 58 9b 3d 38 93 80 bc
       -0.0012698795 0.14860964 0.07585173 -0.0156952
0002c0 9f 02 47 be 77 b6 92 be 82 a0 0a 3c 71 d7 b9 3d
       -0.19434594 -0.28654835 0.00846112 0.09074295
0002d0 12 bc 01 3e f4 c9 37 3e 8a 20 05 3e a7 51 c2 bd
       0.126694 0.17948133 0.13000694 -0.0948823
0002e0 fd 4e 4e be f5 4c 9a 3d c1 ae c9 3e eb 7a f5 3e
       -0.20147319 0.0753421 0.3939114 0.4794534
0002f0 25 96 ed 3d e5 5c 99 be 12 0e 1d be da 5b 2c 3e
       0.116009034 -0.29953685 -0.15337399 0.16831914
000300 86 e9 9e 3e 38 94 94 bb 88 8f 6a be a3 f9 49 be
       0.3103754 -0.0045342706 -0.22906315 -0.19724135
000310 76 41 1d be 33 79 ce bd 35 58 17 3d d2 ae 9e 3d
       -0.15357003 -0.10081711 0.036949355 0.07748188
000320 9f 05 9f bd 79 95 01 be a5 9e 45 be 84 ad 03 3e
       -0.07764744 -0.12654676 -0.192988 0.1285916
000330 07 48 52 3e 8d 8c 13 3d 5e b1 04 be 78 00 b5 bd
       0.20535289 0.03602271 -0.12958285 -0.0883798
000340 4d ae 6b be 5a b4 4a be 13 0e 02 3e 67 82 78 3e
       -0.23015709 -0.19795361 0.12700681 0.24268495
000350 0b 07 a9 3e cf fd 89 bd 53 76 a2 be 5c 27 c6 bc
       0.33013186 -0.06737863 -0.317309 -0.02418869
000360 e4 cc 9d 3e 53 41 ba 3e bd c9 bf 3c 04 83 35 be
       0.30820382 0.36377963 0.023411626 -0.1772576
000370 a9 df 6d be f5 71 1b be e6 51 7e bc 4b c7 81 bd
       -0.23229851 -0.1518019 -0.015522456 -0.0633684
000380 98 6b bc bb 80 9c 30 3d 55 42 d2 bd fa 85 ed bc
       -0.005750131 0.043118 -0.10266558 -0.028994549
000390 94 93 ab bc e5 50 65 bd c4 51 5c 3d 06 64 a3 3d
       -0.020944394 -0.05598535 0.053788915 0.07978062
0003a0 2c 58 bb 3d 4c f0 34 bd e6 7e d2 bd 84 8c 40 3d
       0.09147677 -0.044174477 -0.1027811 0.047009006
0003b0 89 b9 9d 3d 1e 4e 32 3e 2c 9c c0 3d 32 5c 0d bd
       0.07701404 0.17412612 0.094047874 -0.034511752
0003c0 3f 23 fe bd 73 d4 07 bd 53 16 3a 3b 92 50 87 3d
       -0.124090664 -0.03316159 0.0028394654 0.066071644
0003d0 b0 6d b5 bc e4 1c ea 3c f1 99 ee 3c f0 34 b8 bd
       -0.02214703 0.02857823 0.02912614 -0.08994472
0003e0 0c 38 51 bc 67 3e 6c bb 52 a4 13 be f4 39 89 be
       -0.01276971 -0.0036047937 -0.14418152 -0.26802027
0003f0 1b cf 80 be 39 e0 cb bc c5 54 49 3e e0 4c 9e bd
       -0.2515801 -0.024887191 0.19661243 -0.077295065

bias f4 [16]
000000 dd b0 20 bd f8 4e aa 3d d2 3c 1f 3d d3 85 55 bd
       -0.03923117 0.08315843 0.038876362 -0.052129578
000010 0c 24 88 3b 50 e7 80 3d 55 90 18 be 61 36 78 3e
       0.0041546877 0.06294119 -0.14898808 0.24239494
000020 c9 87 50 3d eb 50 95 3e 74 33 0e be 3d 53 b6 3e
       0.050910745 0.29163298 -0.13886815 0.3561038
000030 87 6b 13 3e b4 e5 1e 3e 45 d8 92 3e 39 9c 82 bd
       0.14396487 0.15517312 0.28680626 -0.06377453

weight f4 [120, 400]
000000 80 5d 74 bc 27 95 17 3c 33 0c b0 3b ed a2 22 3c
       -0.01491487 0.009251869 0.005372548 0.00992654
000010 cd f4 8c 39 20 bd 78 bc 9a 59 e8 3b 5a e8 5e 3c
       0.00026885272 -0.01518181 0.0070907595 0.013605202
000020 dd 89 34 bd b2 be 14 bd fa cd 2f 3c 15 f8 26 bd
       -0.04407679 -0.036314674 0.010730261 -0.040763933
000030 fa 42 16 3c 8d 6b 0d 3c 33 98 9a 3c fd e8 2e bd
       0.009171242 0.008631599 0.018871402 -0.042702664
000040 90 7e 1b bd d0 99 d4 3c 6b 6e 17 3d cd 29 fc 3b
       -0.037962496 0.02595225 0.036970537 0.0076954127
000050 93 01 e1 bc b0 a1 d9 3c dd f1 cb bc 8d bc dd bb
       -0.027466571 0.026566356 -0.024895603 -0.006766862
000060 33 4a e2 3b 91 8d 17 bc 03 f2 2f 3c 81 48 7b bc
       0.006905818 -0.009250061 0.010738852 -0.0153371105
000070 20 ad 22 bd df 2c cd bc 5d b2 e4 b8 69 af e1 bc
       -0.039715886 -0.02504581 -0.0001090511 -0.027549462
000080 f8 21 14 bd 1d c3 e4 3c 7f 57 8a bc 10 a7 ea bb
       -0.036165208 0.027925069 -0.016887425 -0.0071610287
000090 0f 51 1e bd 64 0f 8a 3b 1d 57 9a 3c 1f d6 ff 3c
       -0.038651522 0.0042132605 0.018840367 0.03123003
0000a0 ec 68 23 3d db 96 92 bb c6 6f 05 3c dd 37 08 3d
       0.039894983 -0.00447355 0.008144325 0.0332564
0000b0 b8 f5 11 bd aa 56 4c bd df f8 3b 3d ef cc 9b bc
       -0.035634726 -0.049887337 0.04589164 -0.019018618
0000c0 c4 0c f8 bc 25 c8 69 bd 31 be 1c bd 95 ca 20 3d
       -0.030279525 -0.05707564 -0.03826732 0.039255697
0000d0 3f 40 8a bc cf a8 7f 3c 4f eb b1 bc 6a aa 3c 3d
       -0.016876338 0.015604212 -0.02171865 0.046060957
0000e0 e3 ba b7 3c 28 b2 39 bd 5c d5 43 3c 64 1c d6 bc
       0.022427982 -0.04533592 0.011952724 -0.026136585
0000f0 e9 7d ab 3b 93 c6 8a bc c7 d6 88 bb 53 e9 e7 3c
       0.0052335155 -0.01694039 -0.004175994 0.0283095
000100 38 1b 1c 3d 4a 91 14 3d e1 3f 10 bd 35 0b 49 3d
       0.038111895 0.03627137 -0.03521717 0.049082953
000110 24 9c 0d 3d b9 2c 05 bd 18 c5 02 bd 33 a7 b1 ba
       0.034572735 -0.032513354 -0.031926244 -0.0013553858
000120 19 4c 2c 3d 5c 6e a6 bb 5e 6e 45 bd 23 56 09 bd
       0.04206476 -0.005079074 -0.048200957 -0.033529412
000130 e7 a2 1b 3d da ac 33 3d b3 96 3a 3d cb 9b 48 bd
       0.037997153 0.043866016 0.045553874 -0.0489767
000140 4e 41 2b bd 88 ae 3f 3d 50 1f e9 bc b2 a1 dd bb
       -0.041810326 0.046797305 -0.028457314 -0.0067636603
000150 93 a7 8d 3c 1f f8 1e bd 57 9c 9f bc 9b 04 48 bd
       0.01729182 -0.038810845 -0.019483728 -0.048832517
000160 67 df 5a bb 0f ef 8e bc 1b b0 d0 bc c5 76 4c 3d
       -0.0033397318 -0.017447976 -0.025474599 0.049917955
000170 da 6c 87 3c 82 52 2d bd a3 d3 1f bd 53 e0 cb 3b
       0.016531397 -0.042315014 -0.039020192 0.00622181
000180 02 c6 41 3d 55 8f 0f 3d b8 45 0c bd e7 97 09 3c
       0.047307976 0.0350488 -0.034246176 0.008398033
000190 de 77 b1 bb 2a 6c 08 3d da 49 f0 bb bb 8d 01 3d
       -0.0054159006 0.03330628 -0.0073330225 0.031629305
0001a0 32 0f 06 bd bf 82 cf bc c6 94 c3 3b 71 c7 2a 3d
       -0.032729335 -0.0253309 0.005968663 0.04169411
0001b0 33 5c 8d bc a4 48 c5 bc c6 04 96 3c 31 a5 d0 3c
       -0.017255878 -0.02408249 0.018312823 0.025469394
0001c0 8d 6b b1 3b 3c 41 22 3d 6d db 9b 3c 62 a3 2d bc
       0.0054144324 0.039612994 0.019025529 -0.0105980355
0001d0 de 55 bb bc f5 1d 2a 3d d2 fe 09 3d d5 10 09 bd
       -0.022868093 0.041532476 0.03369028 -0.033463318
0001e0 ea 20 46 bd 7e 7b 9c ba 64 aa ba 3b 5f dd 3e 3d
       -0.048371233 -0.0011938659 0.0056965817 0.046597835
0001f0 cd 06 20 3d 9c c3 a3 3c d0 4a a6 3c 98 e3 42 bd
       0.039068986 0.019990735 0.020299345 -0.04758033
000200 9f 71 32 3d 84 35 3b bd 67 1a 2b 3d 42 d4 33 3d
       0.04356539 -0.045705333 0.041773226 0.043903597
000210 31 d2 f1 3c 98 91 43 bc cf 52 08 bd 76 23 bb bb
       0.029519172 -0.011936568 -0.033282097 -0.0057110144
000220 fe 30 4b bd e3 03 dd 3c 67 bd 28 3d 80 02 49 bb
       -0.04960727 0.026979392 0.041196253 -0.0030671656
000230 2d 82 f9 3c e0 4a 17 3d 4d 42 1e bd 11 cd 0a bd
       0.03045758 0.03693664 -0.038637448 -0.033886973
000240 d2 31 19 3d 0b 87 81 bc 32 23 47 3c 23 f3 27 bd
       0.037401028 -0.015811464 0.012154387 -0.041003358
000250 73 fc 36 bc f5 66 35 3d 8b 87 b6 3c 68 70 b9 ba
       -0.011168587 0.04428764 0.022281429 -0.001414788
000260 3c 12 56 3d ab 46 1a 39 e2 20 c5 bb d0 9f d8 bc
       0.052263483 0.0001471291 -0.006015883 -0.026443392
000270 19 94 59 bc 7a 5b ca 3c 90 f6 1c 3d 3e 0a d3 3a
       -0.013279938 0.024701823 0.038321078 0.0016101075
000280 a3 bd da 3c d1 3a 2d 3d 23 44 e6 bc b5 55 10 3c
       0.026701754 0.04229242 -0.028108662 0.008809497
000290 1d c9 be 3c 59 11 9a 3c 9c f3 8c 3c cc 52 9f bb
       0.023289258 0.0188071 0.017206006 -0.004862165
0002a0 03 03 5b bd 0f 46 f5 bc 54 9a 44 3b cb cd 2c ba
       -0.05346967 -0.029940633 0.0029999213 -0.0006591945
0002b0 81 0c cd 3c ad 06 e0 3b c7 3a 0f 3d 68 c7 3a 3d
       0.025030376 0.0068367333 0.034968164 0.045600325
0002c0 79 e4 9e 3b d8 bb fd bb 12 a7 48 bb 9e 75 df bc
       0.0048490134 -0.00774334 -0.003061716 -0.027277764
0002d0 68 7f 34 bd d2 d7 06 3d 69 b4 23 3c e0 9a db 3b
       -0.044066817 0.032920666 0.009991744 0.006701812
0002e0 af 55 93 3c 8a e6 42 bb 88 07 29 3d cc 2f 05 bd
       0.017985193 -0.0029739463 0.041266948 -0.032516286
0002f0 11 5e 2f bd e9 5b fc ba c7 45 1c 3c e4 a2 90 bb
       -0.042814318 -0.0019253466 0.009538121 -0.0044139493
000300 b1 63 58 bc 6b 01 13 3d 3b ba 16 bc c6 64 74 3c
       -0.013207362 0.035890024 -0.009199674 0.014916604
000310 41 b6 ec 3c 6d 9e c7 ba c0 ef 45 bc d2 31 fd 3c
       0.0288955 -0.001522971 -0.012081087 0.030907545
000320 0d b1 69 3d 81 70 18 bc f2 10 90 bc 47 9e eb 3b
       0.057053614 -0.009304167 -0.017586205 0.007190499
000330 24 e6 b0 3c 35 03 c6 bc 9c 72 92 3c 15 a2 c1 3b
       0.021594115 -0.024171451 0.017876916 0.0059092143
000340 0b 04 d8 bc 56 12 94 bb 29 96 94 bc e7 48 12 3d
       -0.026369115 -0.0045187874 -0.018138008 0.035714056
000350 03 67 c0 3a 7d fb b8 bc 94 89 b4 3c 52 a3 dc 3c
       0.0014679137 -0.022580856 0.022038259 0.026933346
000360 ea 33 03 bd a7 08 17 bd 5b 35 40 3d fe c7 37 3c
       -0.03203193 -0.036873486 0.046925884 0.011217115
000370 cd 5b b3 bc ea 3d 46 3d 17 58 a6 bc d5 da 3f 3d
       -0.02189436 0.04839889 -0.020305676 0.046839554
000380 03 6b 17 3d e9 9e 26 b9 d3 79 1b bd 3f 82 cb 3c
       0.03696729 -0.00015890192 -0.037957978 0.02484238
000390 91 03 23 3c 40 d0 0c 3c 9d 23 18 3d f9 20 44 3b
       0.009949581 0.008594573 0.03714334 0.002992688
0003a0 85 ed e0 3b 59 27 28 3d 2f eb 25 3d 51 f5 27 3d
       0.006864252 0.04105315 0.04050749 0.041005436
0003b0 13 07 be bc fb 21 27 bd be 55 55 3b c9 d3 41 3c
       -0.023196733 -0.04080389 0.0032552327 0.011830279
0003c0 1d ab 73 bb 0d ad a1 bc 88 b7 6e bb 86 98 41 bd
       -0.003718085 -0.019735837 -0.003642531 -0.0472646
0003d0 ab 56 a3 3c 66 30 15 bd a1 fa 91 3c 24 fc 34 bd
       0.019938787 -0.03642311 0.017819704 -0.044185773
0003e0 e8 ef ad bc 60 f5 79 3c 35 9c a0 3c 8e c0 e2 3b
       -0.02123256 0.015256256 0.019605735 0.006919927
0003f0 93 c1 d7 bc 16 2e 10 bd ff 3c f3 3c ea 5e 10 3c
       -0.02633742 -0.0352002 0.029692171 0.008811692

bias f4 [120]
000000 38 fa 04 bd 01 88 9f 3c 9e c0 be 3d bd 6d c4 3d
       -0.03246519 0.019474031 0.093140826 0.095912434
000010 6b 52 a9 bc e9 9a ab 3b ad 75 f9 bc 7e c2 b0 ba
       -0.020669183 0.0052369726 -0.03045162 -0.0013485698
000020 10 5d 30 bc 32 14 29 bd 34 d7 71 3d 7a 11 61 3d
       -0.010764375 -0.041279025 0.059043124 0.054948308
000030 30 2d 04 3e 39 9c bf 3c 8e 42 80 3c b8 b0 53 3c
       0.12907863 0.023389922 0.015656736 0.012920551
000040 67 9b 01 3e 7f a1 cd bc f5 52 b4 bc 92 dc 29 bd
       0.12656938 -0.025101421 -0.022012213 -0.041470118
000050 25 f2 87 bb 36 e6 15 3e c2 06 3f 3d 70 3c d6 3c
       -0.004148739 0.146386 0.046637304 0.026151866
000060 89 1b 78 3c 5f 0f a9 bc 42 71 fb bc eb 36 d6 3a
       0.015143284 -0.020637212 -0.030693654 0.0016343271
000070 78 9c 0f bc 2e bd 08 3e 68 90 3e 3d 10 eb b6 3c
       -0.008765332 0.13353416 0.046524435 0.022328883
000080 5c b9 e1 bb e6 b1 54 bd fe 60 68 3c 78 69 e0 3c
       -0.0068885516 -0.05192747 0.014183281 0.027394041
000090 0c 5e 35 3d ba e7 db 3b 81 7e 06 3c 58 65 ea 3c
       0.044279143 0.0067109736 0.008208872 0.028612778
0000a0 87 c6 bf 3d d8 fc 52 bd c5 f7 d2 bb 52 75 99 bc
       0.09364038 -0.05151066 -0.006438228 -0.0187327
0000b0 b3 b6 f3 3d 1d 37 52 3d f9 f5 2e 3c 69 28 ea 3d
       0.119000815 0.05132209 0.010678762 0.11433489
0000c0 5e e2 a4 3c 0f ef 3a 3d a5 ce 6e bc 6e 3b d6 bb
       0.020127472 0.04563814 -0.014575635 -0.0065378463
0000d0 84 54 5c bd 69 cf 44 bd 28 eb 2e 3d 0a 6b 40 bc
       -0.053791538 -0.048049364 0.04270473 -0.01174427
0000e0 3b 4b c1 3d d7 4c c9 ba 21 27 bd 3d 27 10 63 bd
       0.09438177 -0.0015357983 0.09235979 -0.055435326
0000f0 59 da 32 bd 88 1b 83 bc 2f 0c 15 bd 54 12 a7 3c
       -0.043665264 -0.016004339 -0.036388572 0.020394482
000100 c2 ed ef 3c 1c c2 4d 3d 59 a6 31 3d d3 90 a7 3d
       0.029288176 0.050233945 0.043371532 0.0818192
000110 ba 8d 1e 3d 90 46 a5 bd 30 3a 25 bd 5b 12 38 bd
       0.03870938 -0.08070099 -0.040338695 -0.04493938
000120 1d 3d ee 3d 9e e8 ee bc b8 3a 17 3c aa 47 a8 3c
       0.1163275 -0.029163655 0.009230308 0.020541985
000130 ab a0 95 3d ec 2f 4a 3c ad 1b aa bd 6c ba 52 bd
       0.073060356 0.012340527 -0.0830606 -0.051447317
000140 ae 24 e9 bc d6 da 09 3c 15 da 44 3d 35 03 ed bc
       -0.028459873 0.008413991 0.04805954 -0.028932193
000150 2e 4c b3 3b aa b2 58 3d f8 dc 9f 3c fa 5b 83 3a
       0.005471728 0.052904762 0.019514546 0.0010021918
000160 ee d4 86 bc 28 e3 61 3d e0 05 e1 bc 31 4c f2 bc
       -0.016458955 0.055148274 -0.027468622 -0.029577347
000170 8d 40 87 bd c4 f7 be 3c 4b 54 2c bc 59 b8 74 bc
       -0.06604109 0.023311503 -0.010518144 -0.01493653
000180 77 b1 1b 3d 80 2f 25 3d f7 e4 bc 3b a5 69 b0 3d
       0.03801104 0.040328503 0.0057645994 0.086139
000190 d4 dd 7f 3d 01 49 4a bd a6 54 e3 3c 42 21 1c 3d
       0.06246741 -0.04938603 0.027750324 0.038117655
0001a0 3f ba d5 3d 7b 8d f2 bc d1 bf 64 3d 32 61 55 bd
       0.10435914 -0.029608479 0.055846993 -0.052094646
0001b0 39 b6 53 3b d9 3a 14 3d c8 4f aa bc 88 99 3c 3c
       0.0032304658 0.036188934 -0.020789996 0.011511214
0001c0 90 dd 2e 3b fa 7e c0 3d 81 13 2a 3d d1 3a f3 bc
       0.0026682355 0.09399219 0.041522507 -0.029691132
0001d0 9e 0a 17 bd 0a ab 14 3d 4f 00 8d 3c 5c bd 97 3d
       -0.03687536 0.036295928 0.017212061 0.07409164

weight f4 [84, 120]
000000 0c 31 5d 3d 02 7b 30 bc aa 13 9e 3d 3c f6 4c bc
       0.054001853 -0.010771515 0.07718594 -0.012509879
000010 d5 99 f7 bc 0c e0 ba 3d 5c 00 f8 bc 06 e3 05 bc
       -0.03022472 0.09124765 -0.030273609 -0.008171802
000020 18 68 85 bd 3b 25 54 bb 2e 7a 8e bc d4 af 2e bd
       -0.06513995 -0.0032370824 -0.017392244 -0.04264815
000030 c9 fd 01 3e 1e 2a 0c bc 10 f5 82 3d 24 18 d6 bc
       0.12694468 -0.008554963 0.06394398 -0.026134558
000040 0c 6f bd bd 7b 6c f5 bc 46 fa 1a 3d cb c3 23 bd
       -0.09249696 -0.029958954 0.037836336 -0.039981645
000050 d5 b4 cd bd 37 99 80 bc 01 91 76 bd 66 ce 2d bd
       -0.100442566 -0.015698059 -0.06019688 -0.042433165
000060 5a f0 4a bc f5 d7 74 bd 1e 9d 73 bd 24 95 8f bd
       -0.012386406 -0.059776265 -0.05947601 -0.07010868
000070 3a fc 8a bd 77 ba 03 bc 15 71 4c bd 6f 0b 0f 3d
       -0.0678639 -0.008040062 -0.04991253 0.034923013
000080 a6 3d 5d 3d 67 80 95 bd ee 49 21 3d cb 89 25 bd
       0.05401387 -0.072998814 0.039377145 -0.040414613
000090 f3 4d 62 3d 6c 39 1e 3d c7 e1 99 bc 5f e5 95 3c
       0.05525012 0.03862898 -0.018784417 0.01829785
0000a0 cc 63 cb 3c cc 96 6f 3d ed 58 ef 3c 29 9d 99 bd
       0.02482786 0.05849342 0.029217208 -0.07500679
0000b0 14 8e d3 bb 04 19 0b 3d a4 4f c7 3d 2c 31 9b 3d
       -0.006456146 0.033959404 0.09731987 0.07577738
0000c0 5f 7b 95 3d 7a 2b 25 3d 51 46 c8 bb ed db bc bd
       0.07298922 0.040324666 -0.006111898 -0.09221635
0000d0 d4 32 58 3d 98 82 ea b9 2a 8d 93 bc 29 d2 c6 bd
       0.05278285 -0.00044729258 -0.018011648 -0.097080536
0000e0 85 e0 20 bd d2 b5 ca bb 7d 77 84 bd 94 dc 9c bd
       -0.03927662 -0.0061862255 -0.06468103 -0.076592594
0000f0 a1 8d 28 3c b2 f9 f1 3c 0d d6 8b bd fa 44 a9 3d
       0.010287673 0.02953801 -0.06827936 0.08265109
000100 71 d6 28 bd e3 b1 4b bd fa da 9a 3c b5 1c 90 bd
       -0.041220132 -0.049730193 0.018903244 -0.070367254
000110 a3 d3 e5 3a 5a 39 94 bd 3b 60 b9 bd f3 be 7a 3d
       0.0017534386 -0.072375014 -0.09051558 0.06121726
000120 dc fe a3 bd 1b 7e d6 3d db 70 c5 bc 8f 57 38 3d
       -0.08007595 0.104732715 -0.024101665 0.045005377
000130 bc 26 9a 3d ef 32 93 3c 0a b7 4f 3d 95 90 94 bc
       0.07526919 0.017968623 0.05071167 -0.018135348
000140 aa ae 83 3d d5 53 1e bc bf 13 e7 bc 15 c4 6c 3d
       0.06429799 -0.009663542 -0.028207658 0.057804186
000150 c4 43 b0 bc d4 25 63 3d dc 5e 1b 3d ee 96 82 bd
       -0.021516688 0.055455998 0.03793226 -0.06376444
000160 f6 a9 8f bd e9 71 b0 bb db 89 9a bb 32 a8 24 bd
       -0.07014839 -0.005384673 -0.0047161407 -0.040199466
000170 b1 b3 b4 3c 4e d5 ab bd 0c 05 34 3d f9 e9 ae 3d
       0.02205834 -0.08390294 0.043950126 0.085407205
000180 f2 c2 22 3d 92 5e 8a 3d 40 fa 55 bd 25 58 99 bd
       0.039736696 0.06756319 -0.05224061 -0.07487515
000190 41 a6 ca bb 68 74 8d 3d 0a 52 92 bb d1 7f b4 ba
       -0.00618437 0.06906968 -0.004465346 -0.0013771002
0001a0 00 12 8c 3c 0c e3 4e bd 05 1d 9b bd e9 ae 91 3d
       0.017098427 -0.050509498 -0.075738944 0.071134396
0001b0 94 83 af 3b 1b d7 06 3b 49 26 76 3d a0 bd 4d bd
       0.0053562615 0.002057499 0.060095105 -0.05022967
0001c0 1d b1 80 bd d1 dc bf bd a6 cb a4 bd b6 14 c8 3c
       -0.06283782 -0.09368289 -0.08046655 0.024423938
0001d0 6d dd 85 3d 9d 30 89 3c 7a f2 b6 3d d4 35 b7 3d
       0.06536374 0.016746813 0.089329675 0.08945814
0001e0 e2 54 ac 3d 4c 18 88 bd 0b db 3e bd d9 18 e5 3d
       0.084146276 -0.06645259 -0.046595614 0.1118638
0001f0 fd 5d ae 3d 9f 68 c3 3c ce 54 f3 bc ae 08 50 bd
       0.085140206 0.023853598 -0.029703524 -0.050789528
000200 b2 4a 91 3d fb e7 0b bd 93 c6 6a 3d f4 6b d0 3d
       0.07094325 -0.03415678 0.05731828 0.101768404
000210 24 00 e5 bd 82 cf ac 3d 66 dd 4f 3e 10 2e 6c bd
       -0.111816674 0.084380165 0.202993 -0.057661116
000220 81 0e 04 3e 08 75 14 bd 40 db 91 bd 71 52 42 ba
       0.12896158 -0.036244422 -0.07121897 -0.00074127974
000230 a7 5d de 3c 25 78 80 bd 0c 4f 87 3d 75 1e 07 3d
       0.027144266 -0.06272916 0.06606874 0.03298803
000240 d9 43 03 be 93 4a 94 3d 7a ed ac 3d 14 a1 38 3e
       -0.1281885 0.072407864 0.084437326 0.18030196
000250 83 8a b5 bd 20 cf 9f 3c 6c f6 ac bd 65 47 63 3d
       -0.0886431 0.019507945 -0.08445439 0.05548801
000260 c4 ec b9 bc bf 5a 55 bd a4 b8 4b bd 35 ee b0 3c
       -0.022695906 -0.052088495 -0.049736634 0.021597961
000270 5b 02 39 bd e1 8b a4 bd 54 e8 e0 bd 77 d9 f7 3d
       -0.045168262 -0.08034492 -0.10981813 0.12102025
000280 47 08 eb bd 46 13 16 be af 19 9e 3d 89 2a 63 bc
       -0.11476188 -0.1465579 0.077197425 -0.013865122
000290 8b 56 e5 3d 30 ca 24 3d a0 34 27 3e 95 13 34 3e
       0.111981474 0.040231884 0.16328669 0.17585595
0002a0 af d2 bf 3c 5f 50 5a bd 95 cb bf 3d 40 82 0e bd
       0.023415891 -0.053299304 0.09365002 -0.034792185
0002b0 db 37 b0 bd 73 d6 e8 3c 89 b0 c1 bd 05 ec c6 bc
       -0.086044036 0.02842257 -0.094574995 -0.024282465
0002c0 2c 4c 12 be eb cd 25 be 9f 97 97 3d 9a 43 d6 3d
       -0.1428687 -0.16191833 0.07401966 0.10462113
0002d0 11 2f da 3c cf 64 81 bd 81 d7 21 be 26 42 3d 3d
       0.026633771 -0.06318056 -0.15804864 0.046205662
0002e0 6e 5f 31 3d e7 36 97 3d 85 3f ae 3d 08 cd 33 bd
       0.0433039 0.07383519 0.08508209 -0.043896705
0002f0 a8 d5 53 3d fe 8b 01 be dd a4 93 3d 2a 55 f5 bd
       0.05171743 -0.12651059 0.072091796 -0.119791344
000300 4c 23 1a bd 79 17 9d 3c cf 6b 1a be 59 38 08 3e
       -0.037631318 0.019176232 -0.15080188 0.13302745
000310 c4 a9 85 3d 85 73 14 be ab 69 cb bd 9d 86 e4 bd
       0.06526521 -0.14497192 -0.09932264 -0.11158488
000320 b8 7b d7 bd 86 6c 95 bd 6d c7 04 3d cc 67 96 bc
       -0.10521644 -0.0729609 0.03241675 -0.018360041
000330 00 76 b9 bd f3 9f e2 3d ae 2d 82 3d 3c 94 af bb
       -0.0905571 0.11065664 0.06356369 -0.005358247
000340 5d f2 83 bd d3 91 85 3d 41 60 97 bc 84 22 93 3d
       -0.064427115 0.065219544 -0.018478515 0.07184318
000350 46 45 9a bd 6a b3 a7 3d 37 13 90 bd 87 83 ab 3d
       -0.07532744 0.081885174 -0.07034915 0.08374696
000360 44 42 98 bd 9d d1 44 bc 36 13 bf 3b e1 77 cb bd
       -0.07434514 -0.012012866 0.0058311475 -0.099349745
000370 e0 39 f6 3d 6e f0 d2 3c b2 a5 ba 3d be eb ea 3d
       0.120227575 0.025749411 0.09113635 0.114707455
000380 b3 d6 f7 3c 47 88 8f bd 2b 97 9d 3d b2 51 92 bd
       0.030253744 -0.07008415 0.076948486 -0.071444884
000390 52 7f 16 3b 6b 1f cd 3d 40 a6 48 3d f7 3c 08 3d
       0.0022964072 0.10015758 0.048986673 0.033261266
0003a0 c7 2d aa 3b 59 52 19 bd 4d 71 aa bd 74 4a 71 3d
       0.0051934454 -0.03743205 -0.08322392 0.058908895
0003b0 49 e1 b2 bc d0 35 96 bb 88 1a 56 3d f2 34 14 bd
       -0.02183594 -0.0045840517 0.052271396 -0.036183305
0003c0 eb 20 87 3c b2 3d 76 3d 1c 36 32 3c 23 3f a1 bd
       0.016495189 0.06011743 0.0108771585 -0.078733705
0003d0 6a 30 d3 3d fd 3f 91 3d 9f 6a 60 3b fe a5 e4 3d
       0.103119686 0.07092283 0.0034243239 0.11164473
0003e0 4c df 17 bd f8 34 6c 3d a5 6e 04 bc 2b b1 e0 3d
       -0.037078187 0.057667702 -0.00808302 0.10971292
0003f0 99 97 57 bd 33 8b c9 3d 4b 35 8c bd 34 07 9c 3c
       -0.05263481 0.09841003 -0.06846102 0.019046403

bias f4 [84]
000000 a0 d1 61 3d f1 21 ba 3d e8 31 5c 3d 06 99 33 3e
       0.055131555 0.09088505 0.05375853 0.17538843
000010 eb 1a c3 bb 8b b2 17 3e 45 64 90 bd ce ae 40 bb
       -0.0059541366 0.14814202 -0.07050375 -0.0029401067
000020 ab 21 a4 bd 55 93 7e 3d ed 61 bb 3d 46 8b f0 3c
       -0.08014234 0.062152226 0.09149537 0.029363286
000030 02 a3 88 bd c4 88 05 3e 3d e8 18 3e 62 8e 4f bc
       -0.06671716 0.13040453 0.14932342 -0.012668224
000040 22 45 9b 3d e3 59 b3 3d 1d ac a8 bd 1d 89 62 3d
       0.075815454 0.08757379 -0.08235953 0.055306543
000050 8c 49 1b 3e 2a 06 b4 3b 0b 5b 67 3d d7 b5 47 3d
       0.15164775 0.005493899 0.05648331 0.0487574
000060 5e 7d 68 3e 61 c0 47 bd a7 68 18 3d fe f1 12 bd
       0.22704074 -0.04876745 0.03720918 -0.035875313
000070 e2 0e 97 3e 68 c9 61 bc db 77 e5 bc b9 70 74 bd
       0.29503542 -0.013780929 -0.028011253 -0.059677813
000080 7b e9 f8 3d 0b 6d 12 be 3d 35 4b 3c d8 88 60 3d
       0.12153908 -0.14299409 0.01240283 0.054818004
000090 98 69 f5 3c 27 01 20 bd 60 3b fb 3d 67 97 30 bc
       0.029957578 -0.0390636 0.12267184 -0.010778285
0000a0 a3 1b 24 bc 33 80 39 bd 4c 94 00 3e 8c 6a 37 3e
       -0.010016355 -0.045288276 0.12556571 0.17911738
0000b0 fa 62 35 3d 0d 54 87 be 0a 46 45 3e 24 93 ac bd
       0.044283845 -0.26431313 0.19264999 -0.08426502
0000c0 a4 f2 01 3e 76 8b 2b 3d dd 40 d7 bc 73 24 84 be
       0.12690216 0.041881047 -0.026276046 -0.2580906
0000d0 2f f4 24 3c c6 84 c9 3d 97 83 b6 bc 2e dc 84 3c
       0.0100679835 0.09839778 -0.022279544 0.016218271
0000e0 63 97 95 3c 3e d4 31 3d 14 55 4a 3e 4d cb a9 bd
       0.018260663 0.0434153 0.19759017 -0.0829073
0000f0 48 a0 9d bd ea 8a e2 ba f2 a2 14 3d a6 2f 9a bd
       -0.07696587 -0.0017283831 0.03628821 -0.075286195
000100 06 09 29 3e 47 83 d8 bc 17 5e 83 bd d7 d1 08 3e
       0.16507348 -0.026429785 -0.064144306 0.13361298
000110 9f c9 89 3d a4 1d 88 bd 3f 34 0f bd 3f 56 79 bd
       0.06727909 -0.066462785 -0.034961935 -0.060873266
000120 e2 31 36 3e 40 aa 84 3d c7 a2 ab bd 46 3a e6 3d
       0.17792466 0.06477785 -0.08380657 0.112415835
000130 c4 15 8e 3d 47 ea 31 3e 25 2c 0d 3c 29 b5 22 3d
       0.06937745 0.17374526 0.008616482 0.03972355
000140 d4 63 a3 3d 86 c4 ee bd 1b f2 dc bd a0 a9 a8 bd
       0.07978025 -0.116585776 -0.107883655 -0.082354784

weight f4 [43, 84]
000000 44 2e 25 3d 50 74 66 3e ea 98 ec bd 04 04 4e be
       0.040327325 0.22505307 -0.115526035 -0.2011872
000010 06 d7 06 3d 2f a5 43 bc 0f 71 f5 3c 32 8c 25 3e
       0.032919906 -0.011941238 0.029961137 0.16166762
000020 53 bb 02 bd b4 76 cf bd 9c ae 21 be 4e 08 30 3e
       -0.031916928 -0.10130063 -0.15789264 0.17190668
000030 39 19 78 3e 8a 3e 11 be e8 e5 e0 bd 84 71 5a be
       0.24228372 -0.14184013 -0.10981351 -0.21332365
000040 3a 61 80 3d 52 5d 0c 3d c0 04 1f 3d c2 75 80 3d
       0.062685445 0.034268685 0.03882289 0.062724605
000050 2b 9f 80 be f9 43 43 bd 49 97 6e 3d 6d 07 94 bd
       -0.25121436 -0.047672246 0.058249746 -0.07227979
000060 c4 a3 23 3e 0a a4 4b bd 68 0c 83 3c 13 37 1f bd
       0.1598044 -0.049716987 0.015997127 -0.038870882
000070 c0 ae 9d bc 97 a0 03 3d cf 58 58 be c7 3e c9 bd
       -0.019248366 0.032135572 -0.21127628 -0.09826427
000080 e4 36 30 3c 71 b3 b0 3d e8 50 b3 3d 02 11 a1 3d
       0.010755274 0.08627976 0.08755666 0.07864572
000090 05 96 02 be 85 4b 28 be ea 99 18 3e fc 5c 86 be
       -0.1275254 -0.16435058 0.14902464 -0.26242816
0000a0 e3 38 a2 3d ed 22 eb bd 5f 8c 49 be 0b 3c f9 3d
       0.079210065 -0.11481271 -0.19682454 0.121696554
0000b0 83 3c e0 b9 cf 1e 61 3d 1d 93 4a 3d a3 c7 22 3d
       -0.00042769694 0.054961022 0.049456704 0.03974117
0000c0 36 d5 5f bd 4b a0 7b bd dd ab be 3d e7 98 8f 3d
       -0.054646693 -0.061432164 0.09310124 0.07011586
0000d0 6f bf 27 bc 69 7f da 3d 57 1b 42 3d 09 fd 3d 3e
       -0.010238512 0.10668833 0.047389355 0.18553557
0000e0 83 70 d8 bd 07 da 11 bd 75 9a 15 3e 06 2c 8d 3b
       -0.10568335 -0.035608318 0.14609702 0.0043082265
0000f0 93 7c 99 bd e1 f4 aa 3d dd 39 82 3e 46 39 c3 bd
       -0.07494464 0.08347488 0.2543477 -0.095324084
000100 b7 24 ca bd 4e ba 50 3e a1 58 9f bd 07 af d1 3d
       -0.09870284 0.2038357 -0.077805765 0.10238462
000110 81 bb 45 3e 4c ae e0 3d ec 35 45 bb c0 4e 91 3d
       0.19309808 0.109707445 -0.0030091954 0.070950985
000120 76 2f a3 bc f5 b9 ba bd cd 54 1d 3e 1c 8e 4f 3e
       -0.019920092 -0.091175 0.1536438 0.20269054
000130 17 48 23 be c2 01 74 bd 3a 22 50 bd db 35 d2 bc
       -0.15945469 -0.05957199 -0.05081389 -0.025660446
000140 e7 94 94 3d 29 26 9d 3b b0 bd 15 be 24 da 3a bc
       0.07254963 0.004795809 -0.14623141 -0.011404548
000150 ac 78 a9 3d 5f b3 39 3e e7 07 db bc ca 64 d1 3c
       0.082749695 0.18134831 -0.026737167 0.025560755
000160 c2 ee d0 bd 81 92 a9 3c 36 2f df bd b5 2f 0a 3e
       -0.102017894 0.020699741 -0.10897677 0.13494761
000170 77 0c 57 be 68 44 48 be fe ab 43 3d bf 14 fb 3c
       -0.21000849 -0.19557345 0.047771446 0.030649541
000180 c9 b5 15 3e 03 b3 a9 bd bf a8 9b bd b7 23 9d be
       0.14620127 -0.08286097 -0.07600545 -0.3069131
000190 e4 9d c5 bd 24 51 f3 3c 2e 1e 04 3e 45 7c 2e 3d
       -0.09649256 0.029701777 0.12902138 0.04259898
0001a0 06 b5 48 be a8 fb 7f bd d6 52 d3 bd ad 3b 11 be
       -0.19600305 -0.062495857 -0.10318534 -0.14182921
0001b0 43 58 ac 3d aa 0f 07 3d f8 86 80 3c 16 94 06 bb
       0.08415272 0.032973923 0.015689358 -0.0020535043
0001c0 89 62 9b 3d 1f d6 96 3d 7a c6 3e be 86 27 a6 bd
       0.075871535 0.07365059 -0.186304 -0.08113007
0001d0 62 85 f6 3b b2 d1 09 3e 6a bc 45 bd 21 aa b1 3b
       0.0075232247 0.13458899 -0.04827539 0.0054218923
0001e0 7a 94 eb bd 9b 10 98 bd c3 3c 46 3e d3 f9 47 bc
       -0.11502929 -0.07425042 0.19359116 -0.012205559
0001f0 c0 f9 9c 3d 1c 1a bd 3a dc d9 f3 3d dc 2f 16 3d
       0.076648235 0.0014427337 0.11906788 0.036666736
000200 b3 6f b3 bd 9e fb 2a 3b f5 ef e6 bd 39 70 21 3e
       -0.08761539 0.0026089917 -0.11276237 0.15765466
000210 af fd 2c 3d e4 e0 ec bc b9 4a d1 bd d6 4c 0e 3e
       0.04223412 -0.02891583 -0.1021933 0.13896498
000220 42 10 bd bb 5d 85 e0 bd e6 a1 cb 3d ef 6f 54 ba
       -0.0057697603 -0.10962937 0.09942989 -0.00081038376
000230 f5 80 fa bd 9d 5b 82 bd 8a f1 08 3c 30 b6 8e bd
       -0.12231628 -0.0636513 0.008358369 -0.06968343
000240 64 70 19 be 31 e9 31 bd 5e c6 8d 3d 33 08 ad 3d
       -0.1498428 -0.04343528 0.06922601 0.084488295
000250 74 4b 68 3d 17 00 90 bb de d4 00 bd 0e cd 7f 3d
       0.056712583 -0.004394542 -0.031453006 0.062451415
000260 11 15 55 3e 7d 2a 8d 3e fd df 95 bd c2 02 52 3d
       0.20808817 0.27571478 -0.07318113 0.05127216
000270 ca 7a 21 3d 38 d7 80 bd 77 48 2d 3e a4 4b 9f 3e
       0.03942374 -0.0629105 0.16922174 0.31112397
000280 b2 ee 77 3c f9 ff 39 bc 58 70 76 bd 22 2a 3b 3e
       0.015132593 -0.011352533 -0.060165733 0.18277791
000290 ca c1 7d 3d f8 0b c9 3d bc 6d 7f 3d 19 d3 03 be
       0.06195239 0.09816736 0.06236051 -0.12873496
0002a0 f5 0b 40 3c 3a 5f 0b 3e 00 2e 50 bd 78 4f 91 bb
       0.011721601 0.13610545 -0.05082512 -0.0044345222
0002b0 cf f0 a0 bd 42 e3 f0 3b c3 77 1a bd de ee 73 bd
       -0.078584306 0.00735131 -0.03771187 -0.059553973
0002c0 59 26 9c bd a3 32 cc 3c 13 43 21 3d 21 ae 12 3e
       -0.07624502 0.02492649 0.039370608 0.14324237
0002d0 ed 71 21 3d b9 9e f3 3d 69 42 16 bd 32 67 a3 be
       0.03941529 0.11895508 -0.036684427 -0.3191467
0002e0 9a e8 27 bc 4e 69 52 3d ff 2a 40 3e 76 72 7d bd
       -0.010248328 0.051369958 0.18766402 -0.061876737
0002f0 e8 e3 0e be 74 23 05 be 65 15 6b 3d b6 41 db bd
       -0.13954127 -0.13001806 0.05739345 -0.10705893
000300 19 6f 06 3e 59 aa b3 bd a3 81 b7 bc a2 b4 bf bc
       0.13128318 -0.087727256 -0.022400683 -0.023401562
000310 9d af 91 bc f7 57 74 3e 36 17 fc 3d 97 50 9d 3c
       -0.017783934 0.23861681 0.12309115 0.019203467
000320 98 c6 24 3e 60 1c 58 3d 55 fb 2d bd 88 bb bc bd
       0.16091383 0.052761436 -0.042476017 -0.09215456
000330 ad 8a ac bd 9f 27 50 3d 1a 30 87 bc 2a 16 f2 bd
       -0.08424888 0.050819036 -0.016502429 -0.11820634
000340 30 25 96 bd 9f 62 27 bc b1 df 44 3e e5 cb b6 3e
       -0.07331312 -0.010216384 0.19225956 0.35702434
000350 15 e5 cc bd 29 5c f4 3d aa 98 a5 bd e2 9b df 3d
       -0.100046314 0.11931641 -0.08085759 0.10918404
000360 25 60 15 bd 21 f6 d6 3d dc 86 71 bd ca f1 c2 3d
       -0.036468644 0.10496164 -0.058966503 0.09518774
000370 32 4e b6 bd a2 ff d8 bd 5d e5 98 bd 39 37 6c bd
       -0.08901633 -0.10595633 -0.074656226 -0.057669852
000380 51 fd de bd f2 24 c1 bd a7 80 8d bd 5a 72 38 be
       -0.1088816 -0.09430875 -0.06909304 -0.18012372
000390 e5 ae 8a 3d 7d 1e 61 3c 90 a5 c8 bd cd 09 de bd
       0.0677164 0.013740179 -0.097972035 -0.10841713
0003a0 48 e2 8e bc 2d 63 e4 3d 34 b0 b3 3d 5c 4b 99 bd
       -0.017441884 0.11151729 0.087738425 -0.07485077
0003b0 47 10 42 3e 41 3f 67 3e 2b 20 11 be 8a c3 71 bd
       0.18951522 0.22582723 -0.14172427 -0.05902437
0003c0 0c e9 b5 3d 03 5c 9b 3c a3 34 7f 3c 03 82 df 3c
       0.08882341 0.018964773 0.015576514 0.027283674
0003d0 d5 79 4f 3c 1a ec 34 3e 4c 9d 99 3c a2 b6 8d 3d
       0.012663324 0.1766819 0.018751763 0.069196
0003e0 a8 20 13 3e c8 89 44 be 53 1c 47 3d 94 88 c2 3d
       0.14367926 -0.19193184 0.048610996 0.094987065
0003f0 18 0b 5f bc ba 49 f1 3b 0a 85 c0 3d fa 32 34 3e
       -0.013613485 0.007363525 0.09400375 0.17597571

bias f4 [43]
000000 de b0 2e be 0c 5c f6 bd 2d be 18 be 38 a7 b0 3e
       -0.17059657 -0.12029275 -0.14916296 0.34502578
000010 3a 91 c8 3e 3d b5 bc 3e 2f c2 32 3d 8d 44 63 3e
       0.391733 0.36857024 0.04364222 0.22194119
000020 3d 80 10 3f 3d 0b 3e be 1d 00 9f 3e 62 fa 33 3d
       0.56445676 -0.18558975 0.31054774 0.043939956
000030 6e cd 18 3e 55 3a 55 3d 2d a8 46 be 6d 6e 96 bd
       0.14922115 0.052057583 -0.19400091 -0.07345281
000040 30 7e 2a be 24 b2 fa 3d af d6 e6 3c 01 08 e2 bd
       -0.16649699 0.12241009 0.028178541 -0.11036683
000050 03 27 1e b8 3e 55 3a be d3 9e 46 be 42 6e 9e bd
       -3.7706468e-05 -0.1819658 -0.19396524 -0.07735874
000060 4c 8d 39 be 65 e2 a1 3d b8 e9 82 bd d0 56 15 be
       -0.18120307 0.079045095 -0.063922346 -0.14583898
000070 4b 0e 15 bd d3 5f c8 bd 24 e4 e4 3d c4 e1 06 3e
       -0.036390584 -0.09783902 0.11176327 0.1317206
000080 f5 0b 26 be 1f 8d c4 3d 71 e3 4a bd 0b c2 7f bd
       -0.16215499 0.09597229 -0.04953331 -0.062440913
000090 62 2f ca bc 56 d9 64 be c3 eb d6 3e 21 1f eb bd
       -0.024680797 -0.22348532 0.41976747 -0.11480547
0000a0 9a 99 f8 bd df b7 27 be 5d c1 10 be
       -0.12138672 -0.16378735 -0.14136262
