models/lenet.pth (torch, 263623 bytes, 10 tensors)

weight f4 [6, 3, 5, 5]
0	0x3e6d9c5b	0.23204176
1	0x3e759b28	0.23984969
2	0x3d381948	0.044945985
3	0x3de2daf6	0.1107692
4	0xbd465f38	-0.04843065
5	0x3e715ff2	0.23571756
6	0x3ead9575	0.3390309
7	0x3eabe48a	0.335728
8	0x3e9f848d	0.31155816
9	0x3e80e4bc	0.2517451
10	0x3e3afcd2	0.18260506
11	0x3ebcd4b8	0.36881042
12	0x3ec29f5a	0.380122
13	0x3e5e4bb8	0.21708572
14	0x3eb10bba	0.3457926
15	0x3dcb23b1	0.09918917
16	0x3e96512f	0.29358813
17	0x3e3a7951	0.18210341
18	0x3eb2fd2e	0.34958786
19	0x3e6d3d6a	0.23167959
20	0x3e1c3000	0.15252686
21	0x3e76e495	0.24110635
22	0x3e3dc906	0.18533716
23	0x3e1dbb64	0.15403515
24	0x3e0b682b	0.13613956
25	0xbe2e914b	-0.17047612
26	0xbd7cc7bc	-0.06171392
27	0xbce654dd	-0.028116638
28	0xbd2182ee	-0.039431505
29	0xbdbc8fed	-0.09207139
30	0xbe0c5ab2	-0.13706473
31	0x3bfbf36d	0.0076889307
32	0x3dccfd29	0.10009224
33	0xbc363e0d	-0.0111231925
34	0xbcc9b9f3	-0.0246248
35	0x3c3db3cc	0.011578511
36	0xbd36a005	-0.0445862
37	0x3dd77890	0.10521042
38	0x3e03547a	0.12825194
39	0x3e35d448	0.1775676
40	0xbe0f39be	-0.1398687
41	0xbd82cc11	-0.06386579
42	0x3b02f2da	0.0019981177
43	0x3dfaba38	0.1224255
44	0x3e6205af	0.2207248
45	0xbe11ebc7	-0.14250098
46	0x3d13f86c	0.036125585
47	0xbdd3274c	-0.1031023
48	0x3d704d07	0.05866721
49	0xbd765f85	-0.06014969
50	0xbe085247	-0.13312636
51	0xbe9326c0	-0.287405
52	0xbe9f5be2	-0.3112479
53	0xbe9b1788	-0.3029139
54	0xbe519aa5	-0.20469148
55	0xbe39c2ce	-0.18140718
56	0xbe0173be	-0.12641808
57	0x3cf0510e	0.029335525
58	0x3c587314	0.0132110305
59	0xbdcd44bd	-0.100228764
60	0xbe64de95	-0.22350533
61	0xbde7efd0	-0.113250375
62	0xbda272de	-0.079320654
63	0x3d3f019d	0.046632398
64	0x3d60507a	0.05476425
65	0xbe89634b	-0.26833567
66	0xbdbb590b	-0.09147843
67	0xbd72c2e5	-0.059267897
68	0xbe196240	-0.14978886
69	0xbdd19af0	-0.1023463
70	0xbe530d28	-0.20610487
71	0xbe689436	-0.22712788
72	0xbe6c9c08	-0.23106396
73	0xbe30ca98	-0.17264783
74	0xbced5288	-0.028970018
75	0x3e90ec58	0.28305316
76	0x3d37b16b	0.044846933
77	0x3e1085c8	0.14113533
78	0x3e7d15ff	0.24715422
79	0x3e92d082	0.28674704
80	0x3e9e874e	0.30962604
81	0x3e4e07b5	0.20120127
82	0x3e72df5a	0.23718014
83	0x3ee170c8	0.44031358
84	0x3e9bc9f7	0.30427524
85	0x3dad7328	0.0846923
86	0x3e1054d0	0.14094853
87	0x3e911aff	0.2834091
88	0x3f000342	0.5000497
89	0x3e5792b5	0.21052058
90	0xbe7fd567	-0.2498375
91	0xbdd5cfaf	-0.10440003
92	0x3e287c3b	0.1645364
93	0x3e82a930	0.25519705
94	0x3e184ea9	0.14873756
95	0xbc95e0bd	-0.01829564
96	0xbd4d9513	-0.050190996
97	0xbe6effc7	-0.23339759
98	0xbe12ed7c	-0.14348406
99	0xbe9210d0	-0.28528452
100	0x3e67acd1	0.22624518
101	0x3d91af5b	0.071135245
102	0x3e7834d5	0.24238904
103	0x3ef8d9cb	0.48603663
104	0x3ede5036	0.4342057
105	0x3dca5f7a	0.09881492
106	0x3e720cf9	0.23637761
107	0x3ea3b4f7	0.31974003
108	0x3f0e963c	0.5569799
109	0x3ef35be2	0.4753104
110	0xbe9943bf	-0.299345
111	0xbda3201e	-0.0796511
112	0x3e55ff5c	0.20898193
113	0x3ebd48d1	0.36969617
114	0x3ea23754	0.31682837
115	0xbed5dfdf	-0.41772363
116	0xbe0b4eb4	-0.13604242
117	0xbcb1065c	-0.021609478
118	0x3deb3d08	0.1148625
119	0x3df3c547	0.11902862
120	0xbe25d84c	-0.16195792
121	0xbea93128	-0.33045316
122	0xbebbfc6e	-0.36716026
123	0xbe3d0790	-0.18459916
124	0xbe85a0e3	-0.2609931
125	0x3d5b53df	0.053546783
126	0x3da45df2	0.08025731
127	0x3df6b333	0.12045898
128	0x3e1c600d	0.15271015
129	0x3e4282f3	0.18995266
130	0x3d06a994	0.032876566
131	0xbc751ba7	-0.014960206
132	0x3d3c58e7	0.04598322
133	0x3e61d0f2	0.22052363
134	0x3e514618	0.20436895
135	0xbede6e59	-0.43443564
136	0xbe860b8d	-0.26180688
137	0xbcbde780	-0.023181677
138	0x3e52bbea	0.20579496
139	0x3dca3901	0.09874154
140	0xbf00c617	-0.5030226
141	0xbeb17e1e	-0.34666532
142	0xbe576c6e	-0.21037456
143	0x3d2804b4	0.04102011
144	0xbd96b5f3	-0.07358923
145	0xbea2801c	-0.31738365
146	0xbee88a91	-0.45418218
147	0xbf02e2f4	-0.51127553
148	0xbeba7e86	-0.36424655
149	0xbea6cc3a	-0.32577688
150	0x3b500236	0.00317396
151	0xbd829c88	-0.06377512
152	0xbe315fa4	-0.1732164
153	0xbe5886ef	-0.21145223
154	0xbe85d7d0	-0.26141214
155	0xbdeece0f	-0.11660396
156	0xbdb992d8	-0.09061211
157	0xbe9c3593	-0.30509624
158	0xbe319601	-0.17342378
159	0xbe99ef16	-0.3006522
160	0x3e058f9e	0.13043067
161	0x3dc68738	0.0969376
162	0x3e1113e2	0.14167741
163	0x3e3044df	0.17213772
164	0x3e01346a	0.1261765
165	0x3e1c3376	0.15254006
166	0x3e82bbd9	0.2553394
167	0x3e9e9e49	0.30980137
168	0x3e59b434	0.21260148
169	0x3e1982d6	0.14991316
170	0x3c89ac5f	0.016805826
171	0x3e020224	0.12696129
172	0x3e352d51	0.17693068
173	0x3e7a3c12	0.24436978
174	0x3e912f86	0.2835657
175	0xbe2ebdf5	-0.1706465
176	0xbeeee395	-0.46658006
177	0xbecd3d46	-0.4008581
178	0xbebbc0b9	-0.36670473
179	0xbe82f977	-0.25580952
180	0xbe28de25	-0.16490991
181	0xbee86b9e	-0.45394605
182	0xbec23fac	-0.37939203
183	0xbe8f0f72	-0.2794147
184	0xbe959bd6	-0.29220456
185	0xbe849cee	-0.25900978
186	0xbdf99b52	-0.12187828
187	0x3e7fe70b	0.2499048
188	0x3e54b4f7	0.20772158
189	0x3e75d103	0.24005513
190	0xbcbb00d5	-0.022827545
191	0xbd190adf	-0.037363883
192	0x3eb8f166	0.36121672
193	0x3ecf13d1	0.40444806
194	0x3e9ef53e	0.3104648
195	0xbdcb4bd2	-0.09926571
196	0xbd3e7a11	-0.04650313
197	0x3e893ecd	0.26805726
198	0x3e817db8	0.25291228
199	0x3e3513f5	0.17683394
200	0x3d196913	0.037453722
201	0xbe340b31	-0.17582394
202	0xbe8aeb78	-0.27132773
203	0xbe699d69	-0.22813953
204	0xbe8700bc	-0.26367748
205	0xbe80d615	-0.25163332
206	0xbea1ea34	-0.31623995
207	0xbe7d4d76	-0.2473658
208	0xbe25a6df	-0.16176938
209	0xbe042f22	-0.12908605
210	0x3bbfcafc	0.005853055
211	0x3de9858c	0.11402425
212	0x3de474ce	0.11155091
213	0x3e698e90	0.2280829
214	0x3df8bd72	0.12145509
215	0xbe0d07d2	-0.13772514
216	0x3e50a4a1	0.20375301
217	0x3e73990f	0.23788856
218	0x3e9a26b6	0.3010766
219	0x3e83e2a4	0.2575885
220	0xbe105a12	-0.14096859
221	0x3ce6f778	0.028194174
222	0x3e6ffebf	0.23437022
223	0x3eb8da4b	0.36104044
224	0x3e3fd026	0.18731746
225	0xbf320011	-0.6953135
226	0xbf09a954	-0.53774
227	0xbe9dd3aa	-0.3082555
228	0xbc889f2b	-0.01667746
229	0xbe231cb1	-0.15928914
230	0xbef30019	-0.47461012
231	0xbe029cb4	-0.1275509
232	0x3e853c28	0.26022458
233	0x3f14f8ea	0.5819231
234	0x3e8739b2	0.26411206
235	0xbf03a177	-0.5141825
236	0xbd428cbf	-0.047497507
237	0x3ed5b878	0.417423
238	0x3f245f7e	0.6420821
239	0x3ec8a3af	0.3918738
240	0xbedf7aaa	-0.43648273
241	0xbcfdb00d	-0.030967737
242	0x3f01a086	0.50635564
243	0x3f1d85e8	0.6153245
244	0x3e1fd167	0.15607224
245	0xbf1c5d98	-0.6108031
246	0xbeabc396	-0.33547658
247	0xbcd64e70	-0.026160449
248	0xbd2d7ad3	-0.042353462
249	0xbebd6d9f	-0.36997697
250	0xbe6926b3	-0.22768669
251	0x3dc6cab8	0.09706634
252	0x3e43093e	0.19046494
253	0x3e8ca233	0.27467498
254	0x3dd6a5e9	0.104808636
255	0xbd024e2a	-0.031812824

bias f4 [6]
0	0xbcce362a	-0.025172312
1	0xbd7bb765	-0.061454196
2	0x3ebfc8dd	0.37457934
3	0xbf0d6a03	-0.55239886
4	0x37964747	1.7914585e-05
5	0xbd01eba3	-0.03171886

weight f4 [16, 6, 5, 5]
0	0xbe0f920f	-0.1402056
1	0xbdb48150	-0.08813727
2	0x3d0f81e2	0.035035975
3	0x3dbd050b	0.092294775
4	0xbd022f4b	-0.031783383
5	0xbc09af13	-0.008403557
6	0x3bfb94db	0.007677657
7	0x3d803529	0.062601395
8	0x3d875a4e	0.06609021
9	0xbe820292	-0.25392586
10	0x3e236c57	0.15959297
11	0x3e096bbe	0.13420007
12	0x3e4ef8ba	0.20212069
13	0x3cc84b42	0.024449948
14	0xbe8a51ae	-0.27015442
15	0x3e930ba5	0.28719822
16	0x3ea1462c	0.3149885
17	0x3e1e5002	0.15460208
18	0xbd206e03	-0.039167415
19	0xbe1ad8f9	-0.15121831
20	0x3da007e4	0.07814005
21	0x3e7bad34	0.2457779
22	0x3e3903d4	0.18067867
23	0x3b88a8c2	0.004170508
24	0xbde7fb09	-0.11327178
25	0xbe1251f8	-0.14289081
26	0xbdf41bc2	-0.11919357
27	0x3daeeee6	0.0854166
28	0x3d99e311	0.075140126
29	0xbdb5894c	-0.08864078
30	0xbdb25578	-0.08707708
31	0xbd8a1f6b	-0.06744274
32	0x3e689f96	0.22717127
33	0x3c97af96	0.018516343
34	0xbd6eb7f5	-0.058280904
35	0x3d0cc928	0.034371525
36	0xbd824ac0	-0.06361914
37	0x3de9d3c8	0.11417347
38	0x3bcd54da	0.0062662186
39	0xbe1cee69	-0.15325321
40	0x3e38aad0	0.1803391
41	0x3e60d562	0.21956399
42	0x3ca96fac	0.020683132
43	0xbe35a2da	-0.17737904
44	0xbe250e19	-0.16118659
45	0x3dd852af	0.10562646
46	0x3e0545de	0.13014933
47	0xbddcc65a	-0.1078002
48	0xbd107cea	-0.035275377
49	0x3cafe45f	0.0214712
50	0xbe9f7fc7	-0.31152174
51	0xbe33338a	-0.1750013
52	0x3e9bb3c3	0.30410585
53	0x3e2c0ad6	0.16801009
54	0xbe2d8acd	-0.1694748
55	0xbe10fc5e	-0.1415877
56	0x3a3c96c5	0.0007194097
57	0x3e043bec	0.12913483
58	0xbe61612e	-0.22009727
59	0xbea24bc8	-0.31698442
60	0x3ea6b634	0.32560885
61	0x3eddc9ca	0.43318015
62	0x3d88d23d	0.06680725
63	0xbe7333eb	-0.23750274
64	0xbe169262	-0.14704278
65	0x3eafb16f	0.3431506
66	0x3ee0bda3	0.4389468
67	0x3d6f272f	0.058386978
68	0x3d99823d	0.07495544
69	0x3e2ac0b0	0.16675067
70	0x3d81ddce	0.06341134
71	0x3d8a80b7	0.06762832
72	0x3e8b581a	0.27215654
73	0x3ea95997	0.33076164
74	0x3d71655f	0.058934566
75	0xbdcd43f5	-0.100227274
76	0xbe2f5ff5	-0.17126448
77	0x3dc8e378	0.09809011
78	0x3e348e8c	0.17632502
79	0x3e0f8859	0.14016856
80	0xbdcb5d67	-0.099299245
81	0xbe5ce8b4	-0.21573144
82	0x3d9ff533	0.0781044
83	0x3e450dbe	0.19243523
84	0x3db75c66	0.089531705
85	0x3b859e94	0.004077742
86	0xbdf4aa17	-0.119465046
87	0xbc72213b	-0.014778431
88	0x3d1e42ff	0.03863811
89	0xbdf4e517	-0.11957758
90	0x3daf4512	0.08558096
91	0x3e02cb01	0.12772752
92	0xbdfacc2c	-0.12245974
93	0xbe756c50	-0.23967099
94	0xbe08b247	-0.13349257
95	0xbd27f188	-0.041001827
96	0xbd3c7f8a	-0.04602007
97	0xbe2eb7e5	-0.17062338
98	0xbe4d6794	-0.20059043
99	0xbdcf673b	-0.101271115
100	0xbd05120e	-0.03248792
101	0xbd0558a2	-0.03255523
102	0x3d109055	0.035293896
103	0xbdc56e58	-0.09640187
104	0xbd965b8c	-0.0734168
105	0x3da711b9	0.08157677
106	0x3d31e65f	0.04343259
107	0x3d964f15	0.073393025
108	0xbd034bb2	-0.03205461
109	0xbcdd4fed	-0.02701565
110	0xbc4253d5	-0.011860807
111	0x3cdb8871	0.026798459
112	0xbcf4e725	-0.029895375
113	0xbd9040b1	-0.07043589
114	0xbc24a063	-0.010048005
115	0x3b478f64	0.0030450458
116	0xbad0879b	-0.0015909554
117	0x3b7a1808	0.0038161296
118	0xbd992c65	-0.07479171
119	0xbc7e8e92	-0.015536921
120	0x3d117143	0.035508405
121	0x3caa8a48	0.02081789
122	0x3d82fd1e	0.063959345
123	0x3cf33d36	0.029692274
124	0xbc9bfb4f	-0.019040732
125	0x3e97c69f	0.29643723
126	0xbd40c11a	-0.047059156
127	0xbe0612e5	-0.13093145
128	0x3e1d094c	0.15335578
129	0x3e62b782	0.22140315
130	0x3d9f974f	0.07792532
131	0xbed21e5b	-0.41038784
132	0xbe2c9efb	-0.16857521
133	0x3ea1130b	0.3145984
134	0x3e8783e6	0.26467818
135	0x3cde99cc	0.027172945
136	0xbe6884d1	-0.22706915
137	0xbe2b1058	-0.16705453
138	0x3db7d272	0.08975686
139	0x3e00ac4a	0.12565723
140	0xbea42921	-0.3206263
141	0xbdc35824	-0.09538296
142	0xbe1dfdf7	-0.15428911
143	0xbeb39fd5	-0.3508288
144	0xbdecb351	-0.115576394
145	0xbe645308	-0.22297299
146	0xbdef5697	-0.116864376
147	0xbe5095b5	-0.20369609
148	0xbeb663b3	-0.3562294
149	0xbdc8fb1f	-0.098135225
150	0xbdb8388b	-0.0899516
151	0x3d72bc61	0.059261683
152	0xbd93270c	-0.07185182
153	0x3d2462f4	0.04013343
154	0xbd3fb725	-0.04680552
155	0xbe23015a	-0.15918484
156	0x3d969425	0.07352475
157	0xbda40d10	-0.08010304
158	0xbe77a0ea	-0.24182478
159	0xbd9612ae	-0.073277816
160	0xbd5d5bdc	-0.054042682
161	0x3dc35831	0.095383056
162	0xbc578b29	-0.013155737
163	0xbe903f05	-0.2817308
164	0xbe83adfd	-0.2571868
165	0x3d5b05b5	0.05347224
166	0x3e037550	0.1283772
167	0x3e1ec70a	0.15505615
168	0xbd8fc9ef	-0.07020938
169	0xbe964ba7	-0.29354593
170	0x3dc35336	0.095373556
171	0x3dcc1a2c	0.099659294
172	0xbda2987b	-0.079392396
173	0xbe40a2b0	-0.1881206
174	0x3c33a6ab	0.01096503
175	0x3d898398	0.06714553
176	0xbe1366d7	-0.14394699
177	0xbd756ca4	-0.05991806
178	0x3dc11002	0.094268814
179	0x3db22c5d	0.08699868
180	0xbe427b31	-0.18992306
181	0xbd4251a5	-0.047441144
182	0xbe20cd20	-0.15703249
183	0xbe0a4b3d	-0.13505264
184	0x3d2db6f4	0.042410806
185	0xbdba2249	-0.090885706
186	0xbc6148ae	-0.013750238
187	0x3d9e9bb1	0.077445395
188	0xbeb83f76	-0.35985917
189	0xbdd1acb7	-0.10238021
190	0x3cf8f5ee	0.030390706
191	0x3d9e2a52	0.07722916
192	0x3e24a02f	0.1607673
193	0xbdfcf0f9	-0.123506494
194	0xbe9b05e3	-0.3027793
195	0x3e241605	0.16024025
196	0x3e69010a	0.22754303
197	0x3e332d73	0.17497806
198	0xbcb7aa94	-0.022420205
199	0xbd048ba3	-0.03235973
200	0xbcb8f5c4	-0.022578128
201	0x3e78dbaf	0.24302553
202	0x3eac7bd1	0.33688214
203	0xbe03f39e	-0.12885901
204	0x3c05bd1f	0.008162766
205	0x3d83aa33	0.06428947
206	0x3e884f8f	0.26623198
207	0x3e9a69c1	0.3015881
208	0xbe0abcb0	-0.13548541
209	0xbe58bf47	-0.21166717
210	0x3dc78732	0.09742583
211	0x3d4d1cd5	0.050076324
212	0x3e941835	0.28924718
213	0xbe8152a3	-0.2525836
214	0xbe7cf757	-0.24703728
215	0x3dc25d7f	0.09490489
216	0xbaabbf02	-0.0013103189
217	0xbd200c85	-0.03907444
218	0xbe243f4c	-0.16039771
219	0x3e982731	0.297174
220	0x3ea7ae9d	0.32750407
221	0xbe6be00f	-0.2303469
222	0xbf121477	-0.57062477
223	0xbe5edfcc	-0.21765059
224	0x3ec52ad2	0.38509232
225	0xbc8a9d04	-0.016920574
226	0x3c55e443	0.01305491
227	0x3d86cb2f	0.06581723
228	0xbd3499e8	-0.04409209
229	0xbdb52257	-0.088444404
230	0xbd105cb4	-0.03524466
231	0x3e043e5b	0.12914412
232	0x3dadc028	0.084839165
233	0xbe26391c	-0.16232723
234	0xbd6090c4	-0.05482556
235	0xbdce03f6	-0.10059349
236	0x3e285b26	0.1644102
237	0x3e45703e	0.19281098
238	0xbdb25e47	-0.08709388
239	0xbe5115e1	-0.20418502
240	0xbce1fa0a	-0.027585048
241	0x3dfad411	0.1224748
242	0x3ea5af1f	0.3236017
243	0xbe25ded4	-0.16198283
244	0xbe61e39a	-0.2205948
245	0x3d77c282	0.06048823
246	0x3e1f636d	0.15565272
247	0x3e05790b	0.13034455
248	0xbe290074	-0.16504079
249	0xbd884380	-0.066534996
250	0xbd997f47	-0.07494979
251	0xbd4aa03f	-0.04946923
252	0xbc960751	-0.018314036
253	0x3d621494	0.055195406
254	0xbc8aacdf	-0.016928134
255	0xbb1c65dc	-0.0023864424

bias f4 [16]
0	0x3ed26da5	0.41099277
1	0x3cfd674d	0.030933047
2	0x3e6cd865	0.23129423
3	0xbd6458fb	-0.05574892
4	0x3eec48d0	0.46149302
5	0x3d22fae9	0.039790068
6	0x3e520515	0.20509751
7	0x3cb81bb8	0.022474155
8	0xbd4a7187	-0.049424674
9	0x3d62c5b8	0.05536434
10	0x3e3cd2e5	0.18439825
11	0x3ced624f	0.028977541
12	0xbc830ee7	-0.015998317
13	0x3dd47d1c	0.10375425
14	0x3e936080	0.2878456
15	0x3d907006	0.07052617

weight f4 [120, 400]
0	0x3d1b29c3	0.037881624
1	0xbcffff08	-0.031249538
2	0x3c96959d	0.018381888
3	0xbcd24690	-0.025668412
4	0x3c4504af	0.012025042
5	0x3c159d68	0.009131767
6	0xbd477c6c	-0.048702642
7	0xbd6d020c	-0.05786328
8	0xbcc9d2aa	-0.024636585
9	0x3c8ba879	0.017048107
10	0xbcf4eca5	-0.029897997
11	0xbc8fc594	-0.017550267
12	0x3c65c59d	0.014024165
13	0xbc3f397c	-0.01167142
14	0x3b0087ba	0.001961215
15	0xbc8816da	-0.016612459
16	0xbb476f2e	-0.0030431258
17	0x3cf98b5a	0.030461956
18	0x3c6593c0	0.014012277
19	0xbcad35d5	-0.021143833
20	0x3b846e36	0.0040414585
21	0xbd3bb326	-0.045825146
22	0x3c1130b4	0.008861709
23	0x3b54a016	0.0032444051
24	0xbbd54210	-0.0065081194
25	0xbccf4c9f	-0.02530509
26	0x3d0ab46d	0.033863474
27	0x3a6c26e2	0.00090084795
28	0x3cc51a4b	0.024060389
29	0xbd3d5c23	-0.046230447
30	0xbd59baeb	-0.053156774
31	0xbbaf921d	-0.005357994
32	0x3c17dc28	0.009268798
33	0xbba75777	-0.005106862
34	0xbc863335	-0.01638184
35	0xbd09f3b9	-0.033679698
36	0xbd6c05af	-0.057622608
37	0xbc5c5889	-0.013448843
38	0xbd2a2acb	-0.041544717
39	0x3c8dd23c	0.017312162
40	0xbd391cf8	-0.045193642
41	0xbd3e1e4e	-0.04641562
42	0xbd300bb7	-0.042979922
43	0xbc596713	-0.013269204
44	0xbd3fd7e6	-0.046836756
45	0xbc625c3e	-0.013815938
46	0xbd16ddfa	-0.036832787
47	0x3d13be50	0.036070168
48	0xbc962a43	-0.018330699
49	0x3c90b9a7	0.017666651
50	0xbc29438f	-0.010331049
51	0xbd0e2373	-0.034701776
52	0xbcff3c01	-0.031156542
53	0x3ba2059e	0.0049445173
54	0x3d18dd74	0.03732057
55	0xbcf2e98c	-0.02965238
56	0xbd768cc4	-0.06019284
57	0xbcafb4ee	-0.021448579
58	0xbd279f54	-0.04092343
59	0x3cb1f576	0.02172349
60	0x3d18feb3	0.037352275
61	0x3d2b1774	0.041770414
62	0xbd4deab5	-0.050272662
63	0x3bb84dda	0.005624515
64	0xbcc640b4	-0.024200775
65	0xbd673f29	-0.05645672
66	0xbd433673	-0.04765935
67	0xbd04a366	-0.03238239
68	0x3c572347	0.013130969
69	0x3d152c3d	0.036419142
70	0x3cc4d3e1	0.024026813
71	0xbcdd504a	-0.027015824
72	0xbd52b101	-0.051438335
73	0xbc80b79c	-0.015712552
74	0x3cef0c60	0.029180706
75	0x3d45cf2d	0.04829328
76	0x3cda1e2d	0.026625717
77	0x3d11a5f2	0.03555865
78	0xbcc0b911	-0.023525747
79	0xbc6fc7ec	-0.014635067
80	0xbcfaef34	-0.030631639
81	0xbca5ea1d	-0.020253235
82	0x3d27efa5	0.041000027
83	0x3d10ed1b	0.03538237
84	0xbb875069	-0.0041294587
85	0x3bcb257b	0.0061995364
86	0xbd2c7f3b	-0.042113524
87	0xbbd7bcc0	-0.00658378
88	0x3cc2fd2f	0.023802368
89	0x3cb1e7ff	0.02171707
90	0xbcb72a2e	-0.02235898
91	0xbc0923ad	-0.008370322
92	0x3959c800	0.00020769238
93	0x3d457d15	0.04821499
94	0xb988b2c3	-0.0002607313
95	0xbce88af8	-0.028386578
96	0x3d002ea8	0.031294495
97	0xbc34611a	-0.011009479
98	0x3bbe93ee	0.0058159744
99	0xbd02e0a4	-0.031952515
100	0xbd70d965	-0.058801074
101	0xbcf74c78	-0.03018783
102	0xbadb0c37	-0.0016712014
103	0xbd29d9d4	-0.041467503
104	0x3c0d2873	0.008615601
105	0xbcdb6d86	-0.026785623
106	0x3cb7423e	0.022370454
107	0xbd43cbdd	-0.04780184
108	0xbc4b2f45	-0.012401407
109	0x3c0e31bb	0.008678849
110	0x3ca3062c	0.019900404
111	0xbc5fc490	-0.013657704
112	0xbd1d0167	-0.038331416
113	0xbb62ecc4	-0.0034625987
114	0xbd2b3490	-0.041798174
115	0xbc418a50	-0.011812761
116	0x3cff23a6	0.031144928
117	0xbd6409cc	-0.055673406
118	0x3b6c4565	0.0036052105
119	0xbd2d0f9b	-0.04225121
120	0x3b226eba	0.0024785236
121	0xbc5e0b18	-0.01355245
122	0xbbfb690c	-0.0076724347
123	0x3cb2e2f5	0.021836737
124	0xbc99acc9	-0.018759148
125	0x3d472e04	0.04862787
126	0x3ce3a01a	0.027786303
127	0x3bf325d3	0.0074202805
128	0x3cf87656	0.030329864
129	0xbd078d4a	-0.033093728
130	0x3bac2ecb	0.0052546016
131	0xbc0c75e4	-0.008573029
132	0x3ac0d18c	0.0014710887
133	0xbbf74da5	-0.0075470977
134	0xbd1e6032	-0.038665958
135	0x3c718e34	0.0147433765
136	0xbc99ab1e	-0.018758353
137	0xbc935792	-0.017986093
138	0x3ad4c92c	0.001623427
139	0x3cbf74d9	0.023371147
140	0xbc81b65e	-0.01583403
141	0xbcec7928	-0.028866366
142	0x3cd2f7b8	0.025752887
143	0xbd291bd3	-0.0412863
144	0xb931bd61	-0.00016950585
145	0xbcefd364	-0.029275604
146	0xba57daf5	-0.0008234226
147	0xbccbc222	-0.024872843
148	0xbcbe9276	-0.023263197
149	0x3c4fcce1	0.012683124
150	0xbcc0b37c	-0.023523085
151	0xbc16947d	-0.009190676
152	0xbd1cd893	-0.03829248
153	0xbcf5f66a	-0.030024726
154	0xbd628185	-0.0552993
155	0xbc2eef25	-0.010677134
156	0x3ccacf65	0.024757097
157	0xbd177c50	-0.036983788
158	0x3cd03934	0.025417902
159	0x3ca3ad8a	0.01998021
160	0x3d391dcf	0.045194443
161	0x3d1e492c	0.038644
162	0xbcd3059a	-0.025759507
163	0x3cecd1d5	0.02890865
164	0xbc2bdac9	-0.010489174
165	0x3c5106ac	0.012757938
166	0x3ca75198	0.02042465
167	0x3cc531d2	0.024071608
168	0xbc2cdde1	-0.010550947
169	0xbd1b58eb	-0.037926596
170	0xbd03a1cd	-0.032136727
171	0xbbc5e0a4	-0.006038742
172	0xbd3c141d	-0.04591762
173	0x3c390b71	0.011294232
174	0xbcc2cb4f	-0.023778586
175	0x3ce3b4e7	0.027796222
176	0xbc6c402e	-0.0144195985
177	0xbd578c5a	-0.052624084
178	0xbc9bdaca	-0.019025225
179	0xbd1d05ee	-0.038335733
180	0x3cfc4a86	0.030797254
181	0x3d006712	0.031348296
182	0x3c6ccd0f	0.014453187
183	0xba12ba7f	-0.0005597248
184	0xbce8c337	-0.028413398
185	0x3b4a7e83	0.003089816
186	0x3c2b7b94	0.010466475
187	0xbca572b9	-0.020196306
188	0xbb2d6c2c	-0.002646218
189	0xbd61411a	-0.054993726
190	0x3b958945	0.004563483
191	0xbd87be05	-0.0662804
192	0xbca40b57	-0.020024939
193	0x3b2d3b29	0.0026432967
194	0xbcb7dac9	-0.022443192
195	0xbcb1f636	-0.021723848
196	0x3d080a6b	0.03321306
197	0x3cace238	0.021103963
198	0x3ce5c830	0.028049558
199	0xbcf00572	-0.029299472
200	0x3cd6437c	0.026155226
201	0xbcd11622	-0.025523249
202	0xbcd75d44	-0.02628959
203	0xbc29565d	-0.010335532
204	0xbc6ed8be	-0.014578043
205	0xbcd65751	-0.026164683
206	0xbd715e34	-0.05892773
207	0xbd339d8e	-0.043851428
208	0x3ca4985b	0.02009218
209	0x3c3217f5	0.01086997
210	0xbd62f6b0	-0.05541104
211	0xbc0fd73d	-0.008779344
212	0xbd350b05	-0.044199962
213	0xbd4ea0fe	-0.050446503
214	0x3d0bcc92	0.03413064
215	0xbc16ef9f	-0.009212404
216	0xbd72c01b	-0.059265237
217	0x3a0903ce	0.0005226702
218	0xbcca839d	-0.024720961
219	0x3ce274a4	0.02764351
220	0xbd590600	-0.052984238
221	0x3c68294c	0.014170002
222	0x3cb40c9b	0.021978667
223	0xbc08eed9	-0.008357727
224	0xbd54bfe9	-0.051940832
225	0x3cc44d43	0.023962623
226	0xbd34767a	-0.0440583
227	0xbcc10940	-0.023563981
228	0x3b36b367	0.0027877928
229	0x3bfe6519	0.0077635166
230	0xbc708ead	-0.014682454
231	0x3d0a484f	0.033760365
232	0x3d0c5ddb	0.034269195
233	0x39605800	0.00021395087
234	0x3ce6efd4	0.02819053
235	0xbc9bcd82	-0.019018892
236	0x3cbc3ecd	0.022979164
237	0xbb555e4d	-0.0032557428
238	0x3cad1a91	0.021130832
239	0x3c9db7b7	0.019252641
240	0xbc9cb2f5	-0.019128302
241	0xbd080903	-0.03321172
242	0x3ca73ddd	0.02041524
243	0xba66ef33	-0.0008809447
244	0x3bb31566	0.0054651974
245	0x3c146207	0.009056575
246	0x3b28b500	0.002574265
247	0x3d0ccb10	0.034373343
248	0xbb4ae3eb	-0.0030958604
249	0xbc99023a	-0.01867782
250	0xbd55db1b	-0.05221091
251	0xbccbbad8	-0.024869367
252	0x3c08982b	0.008337061
253	0x38e9864e	0.00011135322
254	0x3c99ed40	0.018789887
255	0x3ab4349a	0.0013748587

bias f4 [120]
0	0xbcafdb72	-0.021466944
1	0x3d92f785	0.07176117
2	0x3cbed22e	0.02329358
3	0xbd5a51a5	-0.05330052
4	0x3db6d437	0.089271955
5	0xbe10f8d3	-0.14157419
6	0x3d211f32	0.03933639
7	0x3d01bd6b	0.031674784
8	0xbe23ce5d	-0.1599669
9	0x3df5e51d	0.120065905
10	0xbd725587	-0.059163596
11	0x3d9fd0d6	0.07803504
12	0xbdade4a5	-0.08490876
13	0xbd5a0df6	-0.05323597
14	0xbcb171d5	-0.021660725
15	0x3cf5251d	0.029924924
16	0xbd37749b	-0.044788938
17	0xbc2c9539	-0.010533624
18	0x3ba3fd73	0.0050045787
19	0x3da6bdd1	0.08141673
20	0xbd3af9f1	-0.04564852
21	0x3ceb53a8	0.028726414
22	0xbbe2f166	-0.0069257496
23	0x3c234787	0.009965784
24	0x3dece479	0.11567015
25	0xbce282c1	-0.027650239
26	0x3d627c80	0.055294514
27	0x3cf19c27	0.029493405
28	0x3c03ac05	0.008036618
29	0x3cc7f8bd	0.0244106
30	0xbb9f007b	-0.004852352
31	0x3e52f32f	0.2060058
32	0x3e7517d9	0.23934878
33	0xbd702383	-0.058627617
34	0x3c6c63d1	0.014428095
35	0xbce642a1	-0.028107943
36	0xbe59a200	-0.21253204
37	0xbb340b50	-0.0027472563
38	0xbd3fd242	-0.046831377
39	0x3c7e960f	0.015538706
40	0xbd3c0309	-0.045901332
41	0x3cb4d8c2	0.022076014
42	0xbe9298a3	-0.28632078
43	0x3c4d49fb	0.012529845
44	0xbca9eb3d	-0.020742053
45	0xbd2bc3a7	-0.041934635
46	0xbd957a67	-0.07298737
47	0xbd152d78	-0.036420316
48	0x3e7da927	0.24771558
49	0x3eac0106	0.3359453
50	0x3db9ccc4	0.09072259
51	0xbd1bbb48	-0.038020402
52	0xbd01a2f0	-0.03164953
53	0x3ea139ea	0.31489497
54	0xbc8cd427	-0.017191006
55	0xbd1a8f8f	-0.037734564
56	0x3e820ebc	0.25401866
57	0x3e634c9f	0.22197197
58	0x3d08d59f	0.03340685
59	0x3c272f52	0.010204153
60	0x3de45bc2	0.11150314
61	0xbcf300b4	-0.029663421
62	0xbd18ab3a	-0.03727267
63	0xbd0555c0	-0.03255248
64	0xbbe302d6	-0.0069278283
65	0x3e534eb3	0.2063549
66	0x3ca8f916	0.020626586
67	0xbd214af2	-0.039378114
68	0xbdcc6ea6	-0.09982042
69	0x3e3f9871	0.18710496
70	0xbc85568b	-0.016276618
71	0xbc7a6a28	-0.015284099
72	0xbc416be4	-0.011805508
73	0x3f0a0926	0.5392021
74	0x3cd76d44	0.02629722
75	0xbd311a46	-0.043237947
76	0xbc2dc2cc	-0.010605525
77	0xbc2b0c9a	-0.010440016
78	0x3d1c2502	0.03812123
79	0x3e7e39ef	0.24826787
80	0x3eea4d76	0.45762223
81	0x3e633725	0.22189005
82	0x39b575e4	0.00034610846
83	0x3e0044aa	0.12526193
84	0xbd0992e6	-0.03358736
85	0x3dc48250	0.09595168
86	0x3e0f6ef9	0.14007176
87	0x3d37b6fd	0.044852246
88	0x3c80af07	0.01570846
89	0x3ebb7881	0.36615375
90	0xbc9cf512	-0.019159827
91	0x3c97e680	0.018542528
92	0x3da4b653	0.08042588
93	0x3e2f6c27	0.171311
94	0x3da1f939	0.079088636
95	0x3cbd49df	0.023106514
96	0x3e7e966b	0.24862067
97	0xbd8201d6	-0.063480064
98	0xbd9ca24f	-0.076481454
99	0x3de389c8	0.11110264
100	0xbd35c1d8	-0.044374317
101	0xbd2cac5c	-0.042156562
102	0xbc73bdd9	-0.014876806
103	0xbe1628dd	-0.14664026
104	0xbcab8e73	-0.020941949
105	0xbca54493	-0.0201743
106	0x3e96e5b0	0.29472113
107	0x3e9b4b21	0.30330756
108	0x3e383740	0.17989826
109	0x3d173e5e	0.036924712
110	0xbd7c4f02	-0.061598785
111	0xbcf1b3d3	-0.029504692
112	0xbd871353	-0.06595483
113	0x3eaed06a	0.34143382
114	0x3e53ba2e	0.2067649
115	0x3ec1130a	0.37709838
116	0x3d144cdd	0.036206115
117	0xbd7f3756	-0.06230863
118	0x3d8e7f97	0.069579296
119	0xbb450aa0	-0.0030066147

weight f4 [84, 120]
0	0xbcf910e6	-0.030403566
1	0x3e42db41	0.19028951
2	0x3cd9cbef	0.0265865
3	0xbd7888e5	-0.060677428
4	0x3d930966	0.07179527
5	0x3df57e0e	0.11986934
6	0x3d0fea13	0.03513534
7	0xbdbdf104	-0.09274486
8	0x3cfe6d0c	0.031057857
9	0xbc14d113	-0.00908305
10	0xbdec41fc	-0.11536023
11	0xbc4fd23b	-0.0126844
12	0x3c564155	0.0130771
13	0x3d3d6990	0.04624325
14	0x3c36cbe3	0.011157009
15	0xbcbeef29	-0.0233074
16	0x3eaf8e5d	0.34288302
17	0x3d4867ac	0.048926994
18	0xbcb99255	-0.022652784
19	0xbddf6156	-0.10907237
20	0xbb960d56	-0.0045792265
21	0x3d52571f	0.051352616
22	0xbc4ec51f	-0.0126202395
23	0xbc6bb96f	-0.0143874725
24	0x3d9b4bf4	0.07582846
25	0xbbcc1132	-0.006227636
26	0x3dbb21d0	0.091373086
27	0x3db457b4	0.088057905
28	0xbd5393e1	-0.0516547
29	0x3dafffc1	0.08593703
30	0x3b808397	0.0039219367
31	0x3da70948	0.08156067
32	0xbd00f6ae	-0.031485252
33	0x3e25cdbe	0.16191766
34	0x3c173973	0.009230006
35	0xbd4dd6ab	-0.05025355
36	0xbdc9824e	-0.09839307
37	0x3c243aa7	0.010023749
38	0x3d436b6b	0.047709864
39	0xbd76c656	-0.06024774
40	0x3d8478d8	0.064683616
41	0x3d1c30df	0.038132545
42	0x3e384d64	0.17998272
43	0x3deedf56	0.11663692
44	0x3d1830f5	0.037156064
45	0xbdbc419f	-0.09192204
46	0x3c3aed31	0.01140909
47	0x3cc910bb	0.02454411
48	0x3d935d0b	0.07195481
49	0xbe368b48	-0.17826569
50	0x3df8fb9e	0.12157367
51	0x3d97b9b9	0.07408471
52	0xbc979647	-0.018504275
53	0xbe1a589c	-0.15072864
54	0xbdaee652	-0.08540024
55	0xbd9d7b27	-0.07689505
56	0x3e814e8e	0.25255245
57	0x3c1e59cd	0.009664965
58	0x3db1f59b	0.08689424
59	0x3ced3c77	0.028959496
60	0x3d6bbc1d	0.057552446
61	0xbd81ec6b	-0.06343921
62	0x3d50eb32	0.05100555
63	0x3defb74a	0.117048815
64	0x3d55f62e	0.05223673
65	0xbe38a61d	-0.18032117
66	0x3d1b6ab9	0.037943576
67	0xbdb2f157	-0.08737438
68	0x3de84a49	0.11342294
69	0xbe55ad5a	-0.2086691
70	0xbc4f2af1	-0.012644515
71	0x3d62a4a1	0.055332784
72	0x3d5581db	0.052125793
73	0x3d94846d	0.07251821
74	0x3d9be954	0.07612863
75	0xbc9fe0b6	-0.01951633
76	0x3d9c1e5e	0.076229796
77	0xbcf74885	-0.030185947
78	0xbe1aec9b	-0.1512932
79	0xbda7016b	-0.08154567
80	0x3d256e11	0.04038817
81	0x3d2d6ff1	0.042343084
82	0xbc95e1cf	-0.01829615
83	0xbcd0a38b	-0.025468608
84	0x3dd07de9	0.101802655
85	0xbdc92e46	-0.09823279
86	0xbd86f4eb	-0.06589683
87	0xbd746615	-0.059667666
88	0xbb36943a	-0.0027859346
89	0x3bbf15d3	0.005831459
90	0x3ddf7652	0.1091124
91	0x3da69954	0.08134714
92	0x3d356e76	0.044294797
93	0x3e6867bf	0.22695826
94	0x3db5b611	0.08872617
95	0x3c45737f	0.012051462
96	0x3e33e38f	0.17567275
97	0x3c8a6c9b	0.01689749
98	0xbce82771	-0.02833912
99	0x3c0655dd	0.008199182
100	0x3cb51b2d	0.022107685
101	0xbd4a9d6a	-0.049466528
102	0x3cdd2e13	0.026999509
103	0x3d82f9db	0.063953124
104	0xbc79539d	-0.015217689
105	0xbda588a7	-0.08082705
106	0x3e5b39e8	0.21408808
107	0x3dcfd63b	0.10148283
108	0xbd8f0e3a	-0.069851354
109	0x3cb8cb28	0.02255781
110	0x3d8da608	0.069164336
111	0x3d83337c	0.06406304
112	0xbc038304	-0.008026842
113	0x3e1b349e	0.1515679
114	0xbdf10b7d	-0.11769769
115	0x3da43e5f	0.08019709
116	0xbd0e4c81	-0.03474093
117	0xbd3ba68f	-0.04581314
118	0xbeb53901	-0.35395053
119	0x3ccb3aa8	0.024808243
120	0x3d68c0e9	0.0568246
121	0xbebef215	-0.3729407
122	0x3db89c99	0.09014244
123	0xbd014f67	-0.031569865
124	0x3dd8f608	0.10593802
125	0xbe1d0943	-0.15335564
126	0xbdb3aa9b	-0.08772775
127	0x3d8ed3c2	0.06973983
128	0x3ac7b7cd	0.0015237272
129	0xbca479a5	-0.020077536
130	0x3d3ac462	0.04559744
131	0x3c867133	0.0164114
132	0xbd0b9553	-0.034077954
133	0xbcb21f7e	-0.021743532
134	0x3d818c7d	0.06325624
135	0x3d53b4aa	0.051685967
136	0xbc94cf59	-0.018165277
137	0xbcc57d4d	-0.0241076
138	0xbe486895	-0.19571145
139	0x3cddcb38	0.027074441
140	0x3dab6b05	0.08370022
141	0xb876c6da	-5.8836165e-05
142	0xbd95238c	-0.07282171
143	0x3b3cd740	0.0028814822
144	0x3e1ad690	0.15120912
145	0xbe54f88e	-0.20797941
146	0xbdf82095	-0.121155895
147	0xbb82db04	-0.003993394
148	0x3d596d59	0.053082798
149	0x3db3e4c6	0.087838694
150	0x3ddb46a3	0.10706832
151	0x3e445f50	0.19176984
152	0xbd747b73	-0.059688043
153	0x3e1cd952	0.15317276
154	0xbdb64c01	-0.08901215
155	0xbd068423	-0.03284086
156	0xbdeca55f	-0.115549795
157	0x3d6a9a78	0.05727622
158	0xbd9dba6c	-0.07701573
159	0xbd9bd76f	-0.0760945
160	0x3cdbf884	0.0268519
161	0xbe209eac	-0.15685529
162	0xbd9b47fe	-0.07582091
163	0xbe566296	-0.20936045
164	0x3d12687c	0.035744175
165	0x3dd412d2	0.10355152
166	0x3e3b0ab8	0.18265808
167	0x3e7b1c94	0.2452262
168	0x3de8839e	0.11353229
169	0x3d81b44e	0.063332185
170	0xbdb9fc98	-0.090813816
171	0x3cd8944e	0.026437905
172	0xbd09e266	-0.033663176
173	0x3e0ea528	0.1393019
174	0x3b9dcd13	0.0048157065
175	0xbbdb059c	-0.0066840183
176	0x3dc2a93a	0.09504934
177	0x3df83e99	0.121213146
178	0x3d56ffa8	0.052489907
179	0x3a473952	0.0007599789
180	0xbe38e583	-0.18056302
181	0xbd63476a	-0.055488028
182	0xbdb7ae56	-0.08968799
183	0xbd039ff4	-0.032134965
184	0x3d83cb12	0.06435217
185	0x3e16f688	0.14742482
186	0xbd911c3b	-0.07085463
187	0x3db29731	0.08720244
188	0xbe4857ed	-0.19564791
189	0x3d8ed1c7	0.069736056
190	0xbce4174d	-0.027843142
191	0xbdb1ecdf	-0.08687758
192	0x3d831443	0.06400349
193	0x3d897326	0.06711416
194	0x3dabab63	0.08382299
195	0x3cbe249a	0.023210812
196	0x3cfff0f9	0.031242834
197	0xbd929c83	-0.071587585
198	0x3d802ea4	0.06258896
199	0xbd4fe979	-0.050759766
200	0xbe2d8f50	-0.169492
201	0xbd4aa06f	-0.049469408
202	0x3d889301	0.06668664
203	0xbe1a610f	-0.15076087
204	0x3d6403a6	0.055667542
205	0xbd5ffb30	-0.05468291
206	0x3ddc44b0	0.107552886
207	0x3e337f8c	0.17529124
208	0x3d5c65e0	0.053808093
209	0x3dd14869	0.10218889
210	0xbd967dbe	-0.07348202
211	0x3db0efaf	0.08639466
212	0xbcb3b827	-0.021938397
213	0x3cff797f	0.031185864
214	0x3e049f85	0.12951477
215	0x3d3940e3	0.045227896
216	0xbd864424	-0.065559655
217	0xbc6770ba	-0.014125997
218	0xbd062b2b	-0.032756012
219	0x3d24f44a	0.040272035
220	0xbba65422	-0.0050759474
221	0xbcf5fd8a	-0.030028123
222	0xbd7f5cb8	-0.062344283
223	0x3e693127	0.22772656
224	0x3d648ac9	0.05579642
225	0x3ea0c0e2	0.31397158
226	0xbdc3613f	-0.095400326
227	0xbce30927	-0.027714325
228	0x3e421145	0.189519
229	0xbcd02475	-0.025408009
230	0xbda2b445	-0.0794454
231	0xbd618bbf	-0.055064913
232	0x3badc2fa	0.005302784
233	0xbe168794	-0.14700156
234	0xbe3b5654	-0.1829465
235	0x3d5a2897	0.053261366
236	0x3d56815f	0.05236947
237	0xbb1ebfc6	-0.0024223193
238	0x3daf7624	0.085674554
239	0x3d05766b	0.032583635
240	0xbd8d51b0	-0.06900346
241	0xbd5b03a3	-0.053470265
242	0xbd8253c8	-0.06363636
243	0xbd0c9a18	-0.034326643
244	0xbd0138ba	-0.03154824
245	0xbde44058	-0.11145085
246	0x3d917010	0.07101452
247	0xbb0956ee	-0.0020956355
248	0xbdcce192	-0.100039616
249	0xbc42ed35	-0.011897375
250	0x3d31625b	0.04330669
251	0xbd4427ae	-0.047889404
252	0x3d4ca425	0.049961228
253	0x3d930923	0.07179477
254	0xbcac6395	-0.021043578
255	0xbd75c0c0	-0.059998274

bias f4 [84]
0	0x3c9ccd5f	0.019140897
1	0x3e46489c	0.19363636
2	0xbc33c14d	-0.0109713795
3	0x3c8d65ad	0.017260397
4	0xbb2c8a10	-0.002632741
5	0x3ea4c738	0.32183242
6	0xbe0e2e53	-0.13884859
7	0x3e72e365	0.23719557
8	0x3e995300	0.29946136
9	0x3e6a6934	0.22891694
10	0x3e1705ce	0.14748308
11	0x3e9ec86a	0.3101228
12	0x3dffe7c1	0.124953754
13	0x3cdcd595	0.026957313
14	0x3e8a4622	0.27006632
15	0x3df273ce	0.11838494
16	0x3cf4155f	0.029795347
17	0xbc96acfe	-0.018393036
18	0x3d38aae2	0.04508484
19	0x3e49f2e1	0.19721557
20	0x3e31bd8c	0.17357463
21	0x3e2d19e9	0.16904415
22	0xbe022561	-0.12709571
23	0xbdab264c	-0.08356914
24	0x3dcaf7f0	0.099105716
25	0xbd695471	-0.056965295
26	0xbc851a9b	-0.016248038
27	0x3e57b223	0.21064048
28	0xbce2a2a8	-0.027665451
29	0x3dcb37ae	0.099227294
30	0xbd0c0c13	-0.034191202
31	0x3cb022e7	0.021501018
32	0x3d649759	0.0558084
33	0xbd7fca14	-0.062448576
34	0xbe1b4319	-0.15162314
35	0x3d33fe34	0.0439436
36	0x3e8edd38	0.27903152
37	0xbd6fefa7	-0.05857816
38	0x3e4073c0	0.18794155
39	0xbd91e062	-0.07122876
40	0xbdb49475	-0.088173784
41	0xbd0ea82e	-0.034828357
42	0xbd9de03c	-0.07708785
43	0xbd86ad28	-0.06575996
44	0x3c67f316	0.014157077
45	0x3e3c25dd	0.18373819
46	0x3c1e5b7f	0.009665369
47	0x3c0dc637	0.008653215
48	0xbd2b3109	-0.04179481
49	0xbd16547f	-0.036701676
50	0xbccd1fbe	-0.02503955
51	0x3d8f7164	0.070040494
52	0x3e7b9fcf	0.24572681
53	0xbda6c11e	-0.08142303
54	0xbdaa0078	-0.08300871
55	0xbe0f2a19	-0.13980903
56	0x3c90a9f1	0.01765916
57	0xbde96513	-0.113962315
58	0x3eb2344c	0.34805524
59	0x3cadf195	0.02123336
60	0xbc3ef8ed	-0.011656028
61	0xbd0c3a04	-0.034235016
62	0x3e84300d	0.2581791
63	0x3e9b1f03	0.30297098
64	0xbc5de88e	-0.013544215
65	0xbdd43126	-0.10360937
66	0x3d8c0531	0.06836928
67	0xbd9b7347	-0.07590347
68	0x3edc603f	0.4304218
69	0xbabbe9aa	-0.0014336605
70	0x3d51acfd	0.051190365
71	0x3c3de439	0.011590057
72	0x3e992204	0.29908764
73	0x3dc82bb4	0.09773961
74	0x3e42fb3b	0.1904115
75	0x3e09b847	0.13449202
76	0xbd46e7d2	-0.048560925
77	0x3e8560df	0.2605047
78	0x3e58b98f	0.21164535
79	0x3cdb26ea	0.026751954
80	0xbbc0820e	-0.0058748787
81	0xbd9e4478	-0.07727903
82	0x3e6a7750	0.22897077
83	0x3e8e8d74	0.27842295

weight f4 [43, 84]
0	0x3c86500a	0.016395587
1	0xbe68f04c	-0.22747916
2	0x3da1380d	0.07872019
3	0xbc9a9371	-0.018869134
4	0x3d265673	0.04060979
5	0xbe698159	-0.22803248
6	0xbeac9b17	-0.33712074
7	0xbe8ecff8	-0.27893043
8	0x3d158956	0.036507927
9	0xbd34b175	-0.04411455
10	0xbdac8922	-0.084245935
11	0x3e145980	0.14487267
12	0xbe39ef87	-0.18157779
13	0xbcfc64eb	-0.03080984
14	0x3db54cc6	0.08852534
15	0x3d94f8d7	0.07274025
16	0xbddb574c	-0.1071001
17	0xbd831c3c	-0.0640187
18	0xbd18c4a6	-0.037296914
19	0xbf35b0b4	-0.7097275
20	0xbe44b5c3	-0.19209962
21	0xbec3f287	-0.3827097
22	0x3d862139	0.065493055
23	0xbdce796c	-0.10081753
24	0x3dc1aead	0.09457145
25	0xbe2b8414	-0.16749603
26	0xbdba3393	-0.09091868
27	0x3cb4f21b	0.022088101
28	0xbe3e3d75	-0.18578131
29	0x3df35519	0.118814655
30	0x3cba04b2	0.022707317
31	0xbe228f1d	-0.15874906
32	0xbc8d5a4f	-0.017254977
33	0xbe9b0188	-0.30274606
34	0xbe738228	-0.2378012
35	0xbec7fbc2	-0.39059263
36	0xbec59016	-0.3858649
37	0xbd656e65	-0.056013484
38	0x3e1589aa	0.14603296
39	0x3dbbc4c6	0.09168391
40	0xbcbaae8a	-0.022788305
41	0xbd263d49	-0.04058579
42	0xbd96fdb1	-0.073726065
43	0xbe3b93b1	-0.18318059
44	0x3e8743fa	0.2641905
45	0xbe30831a	-0.17237511
46	0x3d24fd89	0.040280852
47	0xbe5f70b0	-0.2182033
48	0x3d85064c	0.06495342
49	0xbdd8ae4f	-0.10580122
50	0x3dd5c1fc	0.1043739
51	0xbebb298d	-0.36555138
52	0xbbd812d7	-0.0065940428
53	0xbd85cb7e	-0.06532954
54	0x3d0b48ae	0.03400486
55	0xbeda5ed5	-0.42650476
56	0x3e27d598	0.16390073
57	0x3e2919a8	0.16513693
58	0xbef1f59b	-0.47257695
59	0xbd54d7fb	-0.051963788
60	0xbe984e44	-0.29747212
61	0x3d81a1f2	0.06329717
62	0x3e72751f	0.2367749
63	0xbe789577	-0.24275766
64	0x3d9dd2c7	0.07706218
65	0x3dcd8576	0.10035221
66	0x3d8551ee	0.065097675
67	0x3dca1b0f	0.09868442
68	0xbcb0d8ae	-0.021587696
69	0xbcde39a4	-0.027127095
70	0xbd79332b	-0.060839813
71	0xbbcd0881	-0.0062571173
72	0xbcd71550	-0.02625528
73	0x3e398e14	0.18120605
74	0xbec12082	-0.37720114
75	0xbe3ca96d	-0.18424006
76	0x3cb1cded	0.021704638
77	0xbe961a0f	-0.29316756
78	0x3e166e6a	0.14690557
79	0xbe22c0da	-0.1589388
80	0x3e5c1fcd	0.21496506
81	0x3dae5d00	0.08513832
82	0xbe922929	-0.28547028
83	0x3de1e6dd	0.11030362
84	0x3d8e4c7e	0.069481835
85	0xbd327d21	-0.043576363
86	0xbdd1b943	-0.10240414
87	0x3d281499	0.04103527
88	0x3d83c28d	0.06433592
89	0xbd45cc65	-0.04829063
90	0xbdc56bd7	-0.096397094
91	0xbe4442fc	-0.19166178
92	0x3e0dcb08	0.13846982
93	0x3dddc259	0.108280845
94	0x3d704e50	0.058668435
95	0x3da9a702	0.08283807
96	0x3d396c8b	0.04526953
97	0xbdebde76	-0.115170404
98	0xbcab6e7e	-0.02092671
99	0xbdc360c7	-0.09539943
100	0x3d0a23fb	0.03372572
101	0x3ea30c0d	0.31845132
102	0x3cedc483	0.029024368
103	0xbeb24d82	-0.3482476
104	0xbd3e3671	-0.046438638
105	0xbdbbb824	-0.091659814
106	0x3cb215d0	0.021738917
107	0x3c392594	0.011300463
108	0x3db08597	0.0861923
109	0x3e15e9c5	0.14639957
110	0xbd1cb777	-0.038260903
111	0xbd79d64d	-0.06099539
112	0xbcb6d8d3	-0.022320187
113	0x3dda4d62	0.10659291
114	0x3df8d162	0.121493116
115	0xbdb24f97	-0.08706587
116	0x3d32a478	0.04361388
117	0x3ce3e7c6	0.02782048
118	0xbe96229c	-0.2932328
119	0xbdb252e0	-0.087072134
120	0xbdfc30ec	-0.123140186
121	0xbc4b3198	-0.012401961
122	0x3d851b56	0.064993545
123	0xbc9cf3ab	-0.019159159
124	0xbdafd1eb	-0.085849606
125	0x3d9ba53f	0.075998776
126	0x3c4c316d	0.012462956
127	0xbe3b7e00	-0.18309784
128	0x3e313f77	0.17309366
129	0x3e1bf099	0.152285
130	0x3c6d4557	0.014481864
131	0xbd3e3dec	-0.046445772
132	0xbc5dab28	-0.013529576
133	0x3d561bc8	0.052272588
134	0xbdb292cd	-0.08719406
135	0xbeec4197	-0.4614379
136	0xbe1ef61e	-0.15523574
137	0xbd497c28	-0.04919067
138	0x3d1120c7	0.03543165
139	0xbce3fad6	-0.027829569
140	0x3d207c37	0.03918096
141	0x3e16aacf	0.14713596
142	0xbec36bae	-0.3816809
143	0xbe7affec	-0.24511689
144	0xbe2c8fe6	-0.16851768
145	0xbe054a17	-0.13016544
146	0x3e27edb0	0.16399264
147	0xbe234b41	-0.15946676
148	0xbc38748f	-0.0112582585
149	0xbbae7e3e	-0.005325108
150	0x3df9dacf	0.121999376
151	0xbd8432c1	-0.06454993
152	0x3d49a0f4	0.049225762
153	0xbd839307	-0.064245276
154	0x3e32ac22	0.17448476
155	0xbd483d87	-0.048886802
156	0x3df8cd1c	0.121484965
157	0x3d7e1b79	0.06203792
158	0xbec92f68	-0.3929398
159	0x3cf7af95	0.030235091
160	0xbdf6656e	-0.12031065
161	0xbddcc996	-0.10780637
162	0xbe88dc66	-0.2673065
163	0xbd2a9a12	-0.04165084
164	0x3dcf6d8b	0.101283155
165	0xbce00d01	-0.02734995
166	0xbe46499e	-0.1936402
167	0x3ca9b317	0.02071528
168	0xbe1473a3	-0.14497237
169	0x3d52f014	0.051498488
170	0xbd70de08	-0.058805496
171	0xbd8288fe	-0.063737854
172	0x3d0db2c8	0.034594327
173	0x3d71929d	0.058977712
174	0x3dbb99e7	0.09160214
175	0x3d65ccb8	0.05610344
176	0x3dc0f6a7	0.09422045
177	0x3e64e7c2	0.22354034
178	0x3da4296c	0.08015713
179	0xbc327a64	-0.010893438
180	0x3da39083	0.07986548
181	0xbbd54148	-0.0065080263
182	0xbebe40bc	-0.37158763
183	0xbe31b053	-0.17352419
184	0x3c331961	0.010931344
185	0xbe8d719c	-0.2762574
186	0xbe63427e	-0.22193334
187	0xbf1d20d1	-0.613782
188	0xbdce6d57	-0.10079449
189	0xbde4554d	-0.11149082
190	0xbc223011	-0.009899155
191	0xbdb19ef6	-0.086728975
192	0x3d907489	0.07053477
193	0x3ae7c6bc	0.0017683129
194	0xbd9848a0	-0.07435727
195	0x3e032d08	0.12810147
196	0x3db6eb09	0.08931548
197	0xbc86d8d2	-0.01646081
198	0x3e362b60	0.17789984
199	0x3d434ba0	0.047679543
200	0x3e3e9363	0.18610911
201	0xbdd58ddd	-0.10427449
202	0xbd846eb7	-0.0646643
203	0xbde13033	-0.109955214
204	0xbdf56406	-0.119819686
205	0x3d80f6ad	0.0629705
206	0x3d108ad0	0.035288632
207	0xbd10bdfc	-0.035337433
208	0x3d8d4fc9	0.068999834
209	0xbdacfdef	-0.084468715
210	0x3d365741	0.044516806
211	0xbebdc82a	-0.37066776
212	0xbd30d673	-0.043173265
213	0xbdd93f40	-0.10607767
214	0xbdf988f8	-0.12184328
215	0x3dbdd5d9	0.09269304
216	0xbd7b6306	-0.061373733
217	0xbe110b4a	-0.14164463
218	0x3d1921c7	0.03738573
219	0xbd379417	-0.044818964
220	0xbddd1421	-0.10794855
221	0x3d6f06f9	0.05835626
222	0xbd784fda	-0.060623027
223	0xbd5099cf	-0.050927933
224	0xbe5bd1e4	-0.21466786
225	0x3d82cee5	0.06387118
226	0x3c9ee9ec	0.019398652
227	0x3c0e34f1	0.008679614
228	0xbd88c197	-0.06677549
229	0x3d53aa57	0.05167612
230	0x3dc71f7d	0.09722803
231	0xbe14877d	-0.1450481
232	0x3d561210	0.05226332
233	0xbdb2b7b3	-0.08726444
234	0x3df0c72b	0.11756738
235	0x3daed53a	0.085367635
236	0xbd1c1a59	-0.038111065
237	0x3da25466	0.07926254
238	0x3e16ec1f	0.1473851
239	0xbdd94a0b	-0.10609826
240	0x3e39970c	0.18124026
241	0xbcd46d94	-0.025931157
242	0xbea72d30	-0.32651663
243	0xbea91be5	-0.33029094
244	0xbd334ace	-0.04377251
245	0xbde918c5	-0.113816775
246	0xbea7e279	-0.32789972
247	0x3e959c9f	0.29221055
248	0xbe6b0e74	-0.22954732
249	0x3da5cc60	0.08095622
250	0xbe826dcd	-0.25474396
251	0x3c8ae1cd	0.016953373
252	0x3e2e432a	0.17017809
253	0xbe21e92e	-0.15811607
254	0x3dbb577e	0.09147547
255	0xbd197848	-0.037468225

bias f4 [43]
0	0xbe58e772	-0.2118204
1	0xbda23135	-0.07919542
2	0xbd943276	-0.07236187
3	0x3d1832b9	0.037157748
4	0x3dfcd7c9	0.12345845
5	0x3d9f8792	0.0778953
6	0x3e022fd0	0.12713552
7	0x3d09ab1d	0.033610452
8	0x3e0de054	0.13855106
9	0xbe28223b	-0.16419308
10	0xbd458fa7	-0.0482327
11	0xbd923dff	-0.07140731
12	0x3c014dc2	0.007892074
13	0xbcc483d6	-0.023988646
14	0xbe89e81a	-0.26934892
15	0xbe0da530	-0.13832545
16	0xbe4fdc35	-0.20298846
17	0xbe1f431c	-0.15552944
18	0x3e8cfac3	0.27535066
19	0xbdecec64	-0.115685254
20	0x3d2464fe	0.040135376
21	0xbdc6363d	-0.09678314
22	0xbd283a8d	-0.041071463
23	0xbe7de25c	-0.2479338
24	0x3d104021	0.035217408
25	0xbcc3d7c1	-0.02390659
26	0xbde93c02	-0.11388399
27	0x3db3c1b0	0.08777177
28	0xbdcebd63	-0.100947164
29	0xbd9ec76e	-0.07752882
30	0x3e8404cf	0.2578492
31	0x3eb01a9f	0.3439531
32	0x3e593b4c	0.21214026
33	0x3da383d4	0.079841286
34	0xbc6a06e0	-0.014283866
35	0xbd60ebda	-0.054912426
36	0x3e20a689	0.15688528
37	0x3b9935fa	0.004675624
38	0xbbc3bb6e	-0.005973271
39	0x3cd3f015	0.025871316
40	0x3cdd6a51	0.027028235
41	0xbefe7603	-0.4969941
42	0xbe4162a4	-0.18885285
