models/lenet-adam.pth (torch, 263623 bytes, 10 tensors)

weight f4 [6, 3, 5, 5]
0.1442509 -0.14528814 -0.3489557 -0.609947 -0.61009896 0.055702697 0.009709584 0.010437672
0.038121913 0.010920194 -0.04117627 0.08250597 0.23362528 0.3285443 0.40319338 0.11962359
0.015394024 0.052897815 0.3811976 0.32447508 -0.02507321 -0.032707773 0.1911 0.3017173
0.27434564 -0.09421325 -0.19029935 -0.14136703 -0.05411756 -0.38722664 -0.14414366 0.108239815
0.27684745 0.43885168 0.22662626 0.0375768 0.1543928 0.47682133 0.5350468 0.599365
-0.0168075 0.2770992 0.20295736 0.529312 0.61611545 -0.10333187 0.114183046 0.30078405
0.34164345 0.4723285 -0.120737284 -0.11709154 -0.046622768 -0.1558844 -0.37440988 -0.21656053
-0.15732408 0.008489333 0.1004118 0.2526665 -0.3120218 -0.15336184 0.029483594 0.24802819
0.30033615 -0.22077116 -0.07091508 -0.0126128355 0.11460505 0.21972229 -0.39260897 -0.18501613
-0.06969986 0.12371741 -0.048571456 0.0914111 0.3325346 0.1774574 0.2030123 0.13331369
0.05469147 0.16145332 0.27622104 0.11748817 0.08068995 0.20389 0.0155203445 -0.017907118
-0.08506957 0.02931729 0.15783755 0.16028862 0.2111251 0.13379867 0.024933878 0.31330755
0.3576723 0.18184507 0.112943694 0.15109523 0.010057486 -0.09900606 0.19739342 0.058970943
0.1672639 -0.3717991 -0.3594802 0.008387088 0.035469938 0.11324639 -0.14778958 -0.37128547
-0.22264309 -0.28338033 -0.20381746 0.020378206 -0.25414264 -0.29035464 -0.10396533 -0.04983102
0.07737536 0.04542008 0.005032478 -0.039763052 0.18730457 -0.10221039 -0.06051587 0.24091423
0.104858115 0.20107144 -0.41018453 -0.34801412 -0.043905783 0.13049906 0.017424606 -0.40613237
-0.38661343 -0.35957128 -0.25795346 -0.09895376 -0.11265877 -0.26500678 -0.1823985 0.062938325
0.10704914 0.00020323636 0.123444475 0.16883872 0.06609157 0.27615982 -0.016787998 -0.12211089
0.023608036 -0.05222048 -0.030633416 -0.066048324 -0.00964343 -0.0061724917 0.06085026 -0.09129018
0.07634425 -0.06036877 0.009232985 0.08274166 0.0632292 -0.049801387 -0.11613366 0.057960156
-0.117520094 -0.09038459 0.07985379 -0.06232109 -0.08069731 -0.10692029 -0.10153179 0.022750555
-0.092378445 0.03210167 -0.07643963 -0.028353455 0.054721393 -0.06159097 0.07487032 0.051853377
-0.08834447 0.003426534 0.084839016 -0.0050519155 -0.08486008 -0.1313454 -0.07425345 -0.060156535
-0.09029376 -0.057816904 -2.253631e-05 -0.12407984 0.07328171 0.0007294991 -0.07124983 0.049188286
-0.042573083 -0.047657847 0.08149946 0.054189317 -0.06090299 -0.010802023 -0.017297335 -0.07168373
-0.028109359 -0.043896444 0.0397971 -0.034343656 -0.004722117 0.07901412 -0.1183155 0.009368242
0.014036643 -0.026619509 0.049504552 0.040717717 -0.008317082 -0.1252496 0.052283622 -0.1260031
-0.075908504 -0.2376107 -0.116883025 0.018673526 0.059464622 0.104331344 -0.20928551 -0.10876196
-0.0172273 0.017561883 0.020970173 -0.3214224 -0.048555914 -0.16346689 0.057741683 -0.07383949
-0.33520985 -0.252619 -0.02556184 -0.14188801 0.0054646255 -0.28854427 -0.31436235 -0.12179152
-0.03118806 -0.13397904 0.023367712 -0.08217318 0.035485964 0.12952505 0.17025547 -0.16098851
00000000: 82b6 133e 6ac6 14be 52aa b2be 7d25 1cbf
00000010: 722f 1cbf 8328 643d f214 1f3c c502 2b3c
00000020: b925 1c3d 9dea 323c 73a8 28bd e4f8 a83d
00000030: 773b 6f3e f536 a83e 5d6f ce3e 36fd f43d
00000040: 3737 7c3c 61ab 583d 552c c33e 9921 a63e
00000050: 5566 cdbc 96f8 05bd b8af 433e b17a 9a3e
00000060: 0877 8c3e e0f2 c0bd d5dd 42be 85c2 10be
00000070: 60aa 5dbd 9242 c6be 659a 13be d6ac dd3d
00000080: f3be 8d3e 2bb1 e03e b710 683e 21ea 193d
00000090: 2519 1e3e ed21 f43e d4f8 083f fc6f 193f
000000a0: e2af 89bc f2df 8d3e 0ed4 4f3e fe80 073f
000000b0: beb9 1d3f a99f d3bd cdd8 e93d 5e00 9a3e
000000c0: e4eb ae3e 0bd5 f13e 1c45 f7bd b0cd efbd
000000d0: 84f7 3ebd 29a0 1fbe a7b2 bfbe 0bc2 5dbe
000000e0: 9019 21be d816 0b3c b4a4 cd3d 815d 813e
000000f0: 52c1 9fbe e30a 1dbe 9487 f13c 1afb 7d3e
00000100: a9c5 993e d611 62be ed3b 91bd 11a6 4ebc
00000110: 0db6 ea3d e1fe 603e 0b04 c9be de74 3dbe
00000120: cdbe 8ebd 8e5f fd3d ddf2 46bd be35 bb3d
00000130: fa41 aa3e 65b7 353e 75e2 4f3e 6283 083e
00000140: 2a04 603d 0554 253e d86c 8d3e a39d f03d
00000150: c640 a53d 8ac8 503e 0b49 7e3c f3b1 92bc
00000160: f438 aebd d02a f03c 2ba0 213e b322 243e
00000170: 2e31 583e 8502 093e 2242 cc3c d969 a03e
00000180: d320 b73e 9835 3a3e 064f e73d b5b8 1a3e
00000190: 27c8 243c b0c3 cabd 8021 4a3e 848b 713d
000001a0: 3a47 2b3e 745c bebe ca0d b8be ff69 093c
000001b0: ed48 113d b9ed e73d 2756 17be 2119 bebe
000001c0: 8dfc 63be 3a17 91be 86b5 50be 32f0 a63c
000001d0: fc1e 82be 5da9 94be c6eb d4bd 9d1b 4cbd
000001e0: f976 9e3d 680a 3a3d 7ce7 a43b 95de 22bd
000001f0: c5cc 3f3e ae53 d1bd 7ddf 77bd 38b2 763e
00000200: dabf d63d ace5 4d3e b503 d2be e82e b2be
00000210: 8dd6 33bd 8ca1 053e 0cbe 8e3c 95f0 cfbe
00000220: 32f2 c5be ba19 b8be 7a12 84be 45a8 cabd
00000230: a4b9 e6bd f8ae 87be acc6 3abe cfe5 803d
00000240: 943c db3d d81b 5539 75d0 fc3d 0fe4 2c3e
00000250: 045b 873d d264 8d3e fc86 89bc 4615 fabd
00000260: a465 c13c 24e5 55bd eef2 fabc 5844 87bd
00000270: 7aff 1dbc 9d42 cabb 1f3e 793d 59f6 babd
00000280: 605a 9c3d 3e45 77bd f245 173c 7674 a93d
00000290: 507e 813d 8afc 4bbd 7cd7 edbd a167 6d3d
000002a0: 60ae f0bd 8e1b b9bd 628a a33d 6644 7fbd
000002b0: a244 a5bd 06f9 dabd e6ef cfbd 5f5f ba3c
000002c0: e930 bdbd 0a7d 033d 618c 9cbd 8145 e8bc
000002d0: 8a23 603d d046 7cbd 9c55 993d 3564 543d
000002e0: f2ed b4bd b38f 603b 14c0 ad3d 8a8a a5bb
000002f0: 1fcb adbd 697f 06be 3112 98bd b366 76bd
00000300: efeb b8bd 6bd1 6cbd 5b0c bdb7 921d febd
00000310: b914 963d db3b 3f3a 6eeb 91bd a879 493d
00000320: 1d61 2ebd e034 43bd 30e9 a63d 9ef5 5d3d
00000330: 6a75 79bd f8fa 30bc 24b3 8dbc ebce 92bd
00000340: 9945 e6bc c2cc 33bd 4902 233d efab 0cbd
00000350: fdbb 9abb 28d2 a13d 664f f2bd 417d 193c
00000360: f3f9 653c 2811 dabc 49c5 4a3d 9fc7 263d
00000370: 5f44 08bc 6e41 00be 5a27 563d f506 01be
00000380: eb75 9bbd 3850 73be 5e60 efbd 39f9 983c
00000390: 2d91 733d acab d53d f14e 56be 97be debd
000003a0: 4420 8dbc f0dd 8f3c a4c9 ab3c 7a91 a4be
000003b0: 91e2 46bd dd63 27be 8b82 6c3d 2939 97bd
000003c0: a0a0 abbe 4757 81be 1067 d1bc 174b 11be
000003d0: 9a10 b33b 13bc 93be 1af4 a0be d56d f9bd
000003e0: 1a7e ffbc cd31 09be a56d bf3c 6a4a a8bd
000003f0: bb59 113d 37a2 043e 7357 2e3e 2cda 24be

bias f4 [6]
-0.16802675 0.22594672 -0.031864703 0.061002035 -0.19571997 0.13113488
00000000: 340f 2cbe 945e 673e 9084 02bd 45dd 793d
00000010: d16a 48be 3948 063e

weight f4 [16, 6, 5, 5]
-0.053743884 0.065139845 0.035136987 0.044185318 0.08944853 -0.045015328 0.14334908 0.069925025
0.056175936 0.0047171055 -0.04834379 -0.18153614 0.022196466 -0.0012527885 -0.058855865 0.24178591
0.0042797048 -0.21296217 -0.06439048 0.047742378 0.22954585 0.18730561 -0.033911888 0.07923607
-0.042906903 0.12486818 -0.14526577 -0.39592087 -0.45433602 -0.21770114 0.25721005 0.32676053
-0.2895661 -0.2482946 -0.13970198 0.13186854 0.45443985 0.41484466 -0.30894035 -0.3242079
-0.10344888 0.3116155 0.91802543 0.6203782 -0.016002608 -0.06981817 -0.3615862 -0.0685072
0.036452953 -0.21746966 -0.033445835 -0.050927345 -0.018584726 0.046328414 0.05497857 -0.058144
-0.024219146 0.048902147 -0.06983123 0.04895583 0.041129127 0.037840392 0.02208106 -0.0089364
0.0360199 -0.011232963 0.057530336 0.02650797 0.0380549 0.020138672 -0.018516457 -0.07004836
-0.08679015 -0.050683655 0.055778746 -0.13897897 -0.03760079 0.037921038 0.21069995 0.33537817
-0.16996235 0.0020705578 0.17852564 0.09063984 0.14345127 -0.19491646 -0.25437683 0.0018303965
0.19791931 0.17545286 0.17854574 -0.2805475 -0.24352632 -0.12717634 0.03889696 0.18217255
-0.068459116 -0.3559109 -0.08927988 -0.03262989 -0.13215491 -0.17053355 -0.12681907 -0.10849685
-0.030005055 -0.04992236 -0.015590714 -0.1778493 -0.018266905 0.051628347 0.017714782 -0.029963018
0.026824469 -0.045717213 -0.10430213 0.11989989 0.017696898 -0.03831838 -0.10727387 -0.16136295
0.30817825 0.20008989 -0.10636558 -0.08369887 0.030338181 0.11140715 -0.46739736 -0.6309831
-0.12607534 -0.12000912 0.06670235 0.2548722 -0.26968858 -0.38099942 -0.0056028115 -0.27061814
0.73817563 0.79185355 0.32867813 -0.008401676 -0.6783863 -1.0644714 -0.026956351 0.32158494
-0.035298716 0.38233525 0.318891 -0.05208389 -0.08334705 -0.00017081734 -0.037933048 -0.26661277
-0.24285808 -0.12472168 0.022740046 0.26364428 0.012622687 -0.22120509 -0.017075308 0.1456616
0.3767631 0.04356598 0.10442713 0.26193014 0.26465926 0.17215215 0.0026845476 0.16383356
0.031454954 -0.05506915 -0.009757933 -0.12134205 0.03572898 -0.07861696 -0.20041262 0.017569095
-0.088648334 -0.122103885 -0.28061467 -0.14868113 0.12376437 -0.24975896 0.24469808 0.17464413
0.19060412 -0.29637602 -0.9769735 -0.38698822 -0.6090516 -0.68962085 0.30629373 -0.06935269
0.11975843 -0.03809153 -0.23600194 0.2414295 0.11680315 0.67045075 0.3184343 0.14050569
0.019441457 -0.033135395 0.055222176 -0.003328381 0.08124498 -0.028841984 0.02692864 0.020376006
-0.008930894 -0.06284441 -0.04398844 0.08161106 -0.06840861 -0.08307495 -0.0018068943 0.025533061
-0.01585103 -0.05739176 -0.06317548 -0.014222798 0.054231886 0.08490169 -0.054065116 0.049979236
0.0017322265 0.033771597 0.106592596 0.12381827 0.23974979 0.3727742 0.14285289 0.04979667
0.21774256 0.4152663 0.4039471 0.15297213 -0.1461342 0.014467414 0.3842774 0.2881786
0.09931971 -0.31244642 -0.21265593 0.23394847 0.0665052 0.00088503317 -0.36746642 -0.25869414
0.0016032029 -0.2340589 -0.19200803 -0.26919976 -0.34321985 -0.31201935 -0.0048592086 -0.10021537
00000000: 8c22 5cbd 0a68 853d cdeb 0f3d aafb 343d
00000010: ca30 b73d fe61 38bd 1aca 123e da34 8f3d
00000020: bd18 663d f391 9a3b 2304 46bd 9ce4 39be
00000030: 5dd5 b53c 9b34 a4ba d912 71bd ba96 773e
00000040: c43c 8c3b c112 5abe 28df 83bd 838d 433d
00000050: 110e 6b3e 0bcd 3f3e 31e7 0abd 8546 a23d
00000060: 26bf 2fbd e3ba ff3d 8dc0 14be 24b6 cabe
00000070: bb9e e8be 0ced 5ebe 09b1 833e 284d a73e
00000080: 0242 94be f140 7ebe 090e 0fbe 8c08 073e
00000090: 57ac e83e 8566 d43e 6e2d 9ebe 94fe a5be
000000a0: 02dd d3bd 118c 9f3e b703 6b3f 1bd1 1e3f
000000b0: e717 83bc d4fc 8ebd d421 b9be 814d 8cbd
000000c0: b14f 153d 5eb0 5ebe 80fe 08bd 3199 50bd
000000d0: ff3e 98bc ddc2 3d3d 3631 613d 6728 6ebd
000000e0: 3b67 c6bc 9e4d 483d ad03 8fbd e985 483d
000000f0: 0477 283d 87fe 1a3d 57e3 b43c fa69 12bc
00000100: 9a89 133d 760a 38bc eea4 6b3d 3e27 d93c
00000110: 74df 1b3d dbf9 a43c d3af 97bc 8475 8fbd
00000120: 09bf b1bd aa99 4fbd 4178 643d 8150 0ebe
00000130: 4903 1abd 1753 1b3d bac1 573e b0b6 ab3e
00000140: 9c0a 2ebe 32b2 073b 6dcf 363e 61a1 b93d
00000150: e4e4 123e 2e98 47be ae3d 82be eae9 ef3a
00000160: 5cab 4a3e eaa9 333e b2d4 363e eca3 8fbe
00000170: f75e 79be 843a 02be 6b52 1f3d 718b 3a3e
00000180: 4b34 8cbd f439 b6be 5fd8 b6bd eba6 05bd
00000190: 9e53 07be 59a0 2ebe dcdc 01be 9933 debd
000001a0: 29cd f5bc 637b 4cbd 3270 7fbc 201e 36be
000001b0: 7aa4 95bc 3f78 533d 971e 913c 0175 f5bc
000001c0: fdbe db3c f941 3bbd 5b9c d5bd 138e f53d
000001d0: 16f9 903c bcf3 1cbd 67b2 dbbd 543c 25be
000001e0: 8ac9 9d3e 5de4 4c3e 32d6 d9bd 506a abbd
000001f0: c787 f83c 6f29 e43d b54e efbe 1c88 21bf
00000200: e519 01be 57c7 f5bd 3e9b 883d 9c7e 823e
00000210: 9f14 8abe 5b12 c3be ca97 b7bb 768e 8abe
00000220: 14f9 3c3f eab6 4a3f 8048 a83e 2fa7 09bc
00000230: b9aa 2dbf 9940 88bf 91d3 dcbc c8a6 a43e
00000240: 6395 10bd 72c1 c33e ae45 a33e eb55 55bd
00000250: dcb1 aabd 6e1d 33b9 af5f 1bbd 7881 88be
00000260: caaf 78be 156e ffbd 5549 ba3c 62fc 863e
00000270: 63cf 4e3c 9683 62be 84e1 8bbc 5128 153e
00000280: 18e7 c03e 3e72 323d e4dd d53d b51b 863e
00000290: 6b81 873e a748 303e 3cef 2f3b fcc3 273e
000002a0: e9d6 003d 3090 61bd bddf 1fbc 2e82 f8bd
000002b0: 8d58 123d ee01 a1bd f738 4dbe 10ed 8f3c
000002c0: 428d b5bd 9a11 fabd baac 8fbe de3f 18be
000002d0: 2d78 fd3d d0c0 7fbe 2292 7a3e e9d5 323e
000002e0: ba2d 433e 99be 97be ef1a 7abf 5223 c6be
000002f0: ceea 1bbf fe8a 30bf 88d2 9c3e c808 8ebd
00000300: e843 f53d dd05 1cbd 7eaa 71be 4b39 773e
00000310: 7d36 ef3d a9a2 2b3f d209 a33e b9e0 0f3e
00000320: b143 9f3c fbb8 07bd a630 623d f820 5abb
00000330: c563 a63d 0646 ecbc 7499 dc3c 95eb a63c
00000340: e252 12bc 92b4 80bd 392d 34bd b323 a73d
00000350: d019 8cbd 3323 aabd 50d5 ecba b62a d13c
00000360: 05da 81bc 9f13 6bbd 2562 81bd bd06 69bc
00000370: 4122 5e3d f0e0 ad3d 6273 5dbd 07b7 4c3d
00000380: e00b e33a 1654 0a3d 384d da3d 6f94 fd3d
00000390: f880 753e 43dc be3e 0748 123e 98f7 4b3d
000003a0: e8f7 5e3e c99d d43e 27d2 ce3e baa4 1c3e
000003b0: 34a4 15be bb08 6d3c 02c0 c43e 258c 933e
000003c0: 2268 cb3d faf8 9fbe 7ac2 59be 3090 6f3e
000003d0: e133 883d 9201 683a 8f24 bcbe 8f73 84be
000003e0: 9022 d23a 23ad 6fbe c19d 44be 8dd4 89be
000003f0: 83ba afbe 00c1 9fbe ff39 9fbb b73d cdbd

bias f4 [16]
0.20602086 0.35977942 0.43514806 0.16907494 0.063297994 0.36725464 0.0028681648 0.0012854801
0.01451489 0.26037192 0.16506223 0.18054046 0.23862027 0.102904305 0.35186252 0.063922234
00000000: 22f7 523e 0235 b83e bacb de3e fb21 2d3e
00000010: 61a2 813d cd08 bc3e d2f7 3b3b 8e7d a83a
00000020: dccf 6d3c 784f 853e 1306 293e 99df 383e
00000030: df58 743e 7ebf d23d 5327 b43e a9e9 823d

weight f4 [120, 400]
-0.052828312 -0.025310444 -0.009152639 -0.094120674 0.0014094362 -0.05694387 -0.18108815 -0.03443454
0.038168475 0.0016362475 0.11770748 0.016477447 0.22994238 0.0052712923 0.015572451 -0.018402517
-0.30167976 -0.3863144 -0.23252712 0.10710267 0.022602739 0.068060905 -0.014473423 0.041528374
0.10637239 -0.16293457 -0.026071522 0.009473538 -0.011998317 -0.12843163 -0.013165368 0.10357066
0.11095639 -0.011089152 0.051200386 -0.1714111 -0.26530495 -0.09992911 0.03121911 0.24135038
0.10406076 -0.008087709 0.115591705 -0.08241367 0.11578773 0.08004747 0.15457557 0.20914486
-0.06693323 -0.05209387 0.02999306 0.06745058 -0.14263497 0.04396301 0.048300304 0.13398986
0.10872613 0.28824607 0.12028469 -0.06485756 0.0230731 0.050299767 0.27456415 0.06758256
-0.045172013 0.033648804 -0.06363277 0.0800322 -0.2452864 -0.002186023 0.097961724 0.022680808
-0.0011308929 -0.17598659 -0.012277873 -0.024275525 0.055471037 -0.07809956 0.01638263 -0.038053945
-0.0073369215 -0.11334904 -0.04737011 -0.033584386 -0.111512564 -0.0007339537 0.044801243 0.5218025
0.11237271 0.014843342 -0.13613585 -0.36573884 0.05996423 -0.16189478 -0.2539815 0.043787923
0.12212564 -0.05894034 -0.025154004 0.0039521586 0.029247656 0.011915929 0.22014555 0.09977993
0.030041091 0.009188733 0.029867936 0.043223724 -0.060382877 0.044754606 -0.21636121 -0.07136064
0.2781715 -0.045069654 -0.072778754 -0.013094129 -0.09543368 0.18656974 0.12547643 -0.07926552
-0.101324424 -0.019313945 -0.0840122 -0.0233852 -0.17738654 0.18317859 0.068244115 0.11199342
0.105106615 0.1801447 -0.045473337 0.04964975 0.02818641 0.15850349 0.013688767 0.13872807
-0.09502881 -0.28245252 0.104278766 -0.056357414 -0.06849264 0.098935135 -0.013959619 0.28136525
-0.24718606 -0.019424627 0.113413185 0.01587846 0.055773802 0.024628054 -0.03952681 0.030408166
-0.07128828 -0.0017199197 0.038388513 -0.036261097 0.002267298 -0.20414183 -0.23407643 -0.19401667
-0.089577794 -0.1247977 -0.2153422 -0.24587424 -0.1648157 0.03819167 0.07017235 0.16167091
0.20975971 0.18121827 -0.014993741 0.045577567 0.2738906 0.17320448 0.17833044 0.04829344
0.055975176 -0.09307253 -0.043274764 -0.08720377 -0.013820824 -0.19658463 -0.12910804 -0.09327938
0.024042787 -0.023658698 -0.020832317 0.023974665 0.048941385 0.027292192 0.03349465 0.18555664
0.24263114 0.14712311 0.17117076 -0.06369131 0.032374583 0.19388252 0.022622582 0.10438654
0.058929004 0.015402931 -0.21439615 -0.020636423 0.019377941 -0.03853344 0.08253492 0.002781341
-0.03747683 -0.116405584 -0.08495137 0.041821476 -0.10470536 -0.13827348 0.03980805 -0.060833223
-0.22114536 -0.0613576 -0.066267274 -0.105093315 0.054979656 0.017720558 0.05166283 0.13347723
-0.042546935 -0.046735458 0.03260382 -0.103988364 0.033415068 0.04076067 -0.008968622 0.041537456
0.104561776 -0.08858366 -0.07413657 -0.11548313 0.11858627 0.4409501 -0.10522935 -0.2253764
-0.07369201 -0.25193325 -0.046549737 -0.017285438 -0.0036152091 0.055685684 -0.048071925 -0.04992951
-0.031766705 0.15268826 -0.001690098 -0.15964425 0.124307334 0.096251786 0.01692284 0.050312545
00000000: 8062 58bd d957 cfbc f3f4 15bc 57c2 c0bd
00000010: d5bc b83a fa3d 69bd 2c6f 39be 3b0b 0dbd
00000020: 8c56 1c3d 5b77 d63a 9f10 f13d b6fb 863c
00000030: 0476 6b3e ceba ac3b 9823 7f3c e0c0 96bc
00000040: c575 9abe 00cb c5be 971b 6ebe a558 db3d
00000050: 6129 b93c 8463 8b3d f021 6dbc a819 2a3d
00000060: c5d9 d93d 52d8 26be f293 d5bc e636 1b3c
00000070: 9794 44bc 9583 03be 8eb3 57bc db1c d43d
00000080: 1b3d e33d 46af 35bc 7fb7 513d 6486 2fbe
00000090: 0dd6 87be a2a7 ccbd 38bf ff3c 8e24 773e
000000a0: cf1d d53d 4f82 04bc 58bb ec3d 80c8 a8bd
000000b0: 1e22 ed3d eeef a33d 0f49 1e3e 122a 563e
000000c0: 4a14 89bd 6260 55bd 01b4 f53c 8823 8a3d
000000d0: e70e 12be 8f12 343d 8ad6 453d a334 093e
000000e0: ceab de3d fd94 933e d257 f63d 0ad4 84bd
000000f0: cc03 bd3c 2107 4e3d ac93 8c3e ba68 8a3d
00000100: 4a06 39bd 54d3 093d e651 82bd ece7 a33d
00000110: 5c2c 7bbe 6143 0fbb 28a0 c83d 1acd b93c
00000120: 783a 94ba d435 34be 2229 49bc 77dd c6bc
00000130: 9935 633d aaf2 9fbd de34 863c 74de 1bbd
00000140: 8f6a f0bb 8b23 e8bd 2907 42bd c88f 09bd
00000150: b360 e4bd cd66 40ba 8281 373d d994 053f
00000160: aa23 e63d 7d31 733c 3267 0bbe 1f42 bbbe
00000170: 0d9d 753d bfc7 25be dd09 82be f75a 333d
00000180: 021d fa3d 6d6b 71bd c50f cebc 1c81 813b
00000190: c898 ef3c 073b 433c d66d 613e 6c59 cc3d
000001a0: bc18 f63c 578c 163c 9aad f43c 5c0b 313d
000001b0: 0954 77bd 9b50 373d cb8d 5dbe 8725 92bd
000001c0: 7f6c 8e3e f59a 38bd 070d 95bd c288 56bc
000001d0: bc72 c3bd 230c 3f3e e57c 003e f655 a2bd
000001e0: 2e83 cfbd 4738 9ebc 970e acbd 5292 bfbc
000001f0: d1a4 35be 2b93 3b3e 92c3 8b3d ce5c e53d
00000200: 2342 d73d da77 383e 4042 3abd 895d 4b3d
00000210: 30e7 e63c bd4e 223e da46 603c bb0e 0e3e
00000220: 779e c2bd 9e9d 90be 1b90 d53d 08d7 66bd
00000230: df45 8cbd 819e ca3d e3b6 64bc 1b0f 903e
00000240: 581e 7dbe 6520 9fbc 2c45 e83d 8b13 823c
00000250: 1273 643d c6c0 c93c dde6 21bd 8c1a f93c
00000260: 97ff 91bd ee6e e1ba 463d 1d3d 8486 14bd
00000270: f396 143b 8e0a 51be bbb1 6fbe 4eac 46be
00000280: 9074 b7bd f095 ffbd aa82 5cbe 75c6 7bbe
00000290: 72c5 28be de6e 1c3d 85b6 8f3d 0f8d 253e
000002a0: 40cb 563e 4891 393e 4fa8 75bc 8baf 3a3d
000002b0: 643b 8c3e 845c 313e 419c 363e 58cf 453d
000002c0: 3a46 653d d09c bebd e140 31bd e497 b2bd
000002d0: bd70 62bc 7b4d 49be e634 04be 4209 bfbd
000002e0: 61f5 c43c e3cf c1bc 89a8 aabc 8466 c43c
000002f0: c376 483d e093 df3c b031 093d 8f02 3e3e
00000300: 4c74 783e 71a7 163e 6347 2f3e 9770 82bd
00000310: 369b 043d 2489 463e fe52 b93c 9cc8 d53d
00000320: 8a5f 713d 935c 7c3c aa8a 5bbe b70d a9bc
00000330: 7dbe 9e3c 3ed5 1dbd 1108 a93d 2947 363b
00000340: 4e81 19bd 0d66 eebd fcfa adbd ff4c 2b3d
00000350: c46f d6bd 9097 0dbe c40d 233d 422c 79bd
00000360: ee73 62be 1b52 7bbd 23b7 87bd 2a3b d7bd
00000370: 5932 613d b42a 913c 679c 533d 41ae 083e
00000380: b245 2ebd ae6d 3fbd 958b 053d daf7 d4bd
00000390: 3dde 083d a9f4 263d 21f1 12bc 2e23 2a3d
000003a0: 7c24 d63d 5a6b b5bd ead4 97bd 6b82 ecbd
000003b0: 5cdd f23d 36c4 e13e 7c82 d7bd 12c9 66be
000003c0: d6eb 96bd 65fd 80be f0aa 3ebd 319a 8dbc
000003d0: 25ed 6cbb ac16 643d 11e7 44bd e382 4cbd
000003e0: ce1d 02bd 505a 1c3e 4786 ddba c879 23be
000003f0: d894 fe3d a81f c53d c5a1 8a3c 8714 4e3d

bias f4 [120]
0.14756423 0.24317732 0.039295457 0.024705034 0.34723788 0.033965744 -0.01690902 0.21770473
0.05921581 0.027446285 0.0058151186 0.0057954695 0.114954226 0.008087363 0.018606158 0.09200829
-0.042423856 0.07294883 -0.0041657886 -0.0013185014 0.19017343 -0.013191101 -0.028730128 0.34462905
0.038076874 0.3710794 0.06956118 0.024216564 0.075036004 0.1421323 0.037356067 0.039786078
-0.04461757 -0.012083602 0.16468428 -0.05051621 -0.08767317 -0.051877543 -0.0020659359 -0.012390002
-0.026560275 0.13117446 0.00024206626 0.16499026 0.011766332 -0.04367287 0.014076801 0.05243333
0.043676723 0.028964387 -0.12668939 0.21605271 -0.04714597 0.23483287 -0.109337494 0.02201466
0.044882163 0.09729077 -0.06476626 0.3196841 0.010154562 0.024287963 -0.04029515 -0.03127499
0.17052278 -0.07210973 -0.025469271 0.0032970533 0.12993819 0.1759827 -0.048369125 0.02412333
0.102761514 -0.02526604 -0.07044535 -0.020774454 -0.04616549 -0.093390174 0.02173863 -0.036438327
-0.063438006 0.23586535 0.010392518 0.06375966 -0.048874687 0.40873203 -0.06642446 0.4607517
-0.009208486 0.08663368 0.19242874 0.015026956 0.026917228 0.026810352 0.03451737 0.23353583
0.014694329 0.015574979 -0.02269053 -0.07027996 -0.057747018 -0.05795607 -0.08392436 0.16460851
0.30176833 -0.03840334 -0.058187537 0.025417008 0.09231962 -0.080107555 -0.06280144 0.28708592
0.008985944 0.1151832 0.05059782 0.067195415 -0.0040088445 0.023526166 -0.17493223 -0.020560227
00000000: 141b 173e 7a03 793e 46f4 203d 3662 ca3c
00000010: 2ac9 b13e aa1f 0b3d c984 8abc fded 5e3e
00000020: 478c 723d 08d7 e03c c08c be3b ece7 bd3b
00000030: 1f6d eb3d dc80 043c f16b 983c d86e bc3d
00000040: a3c4 2dbd 3266 953d 2b81 88bb 91d1 acba
00000050: d3bc 423e 7d1f 58bc 725b ebbc 3873 b03e
00000060: 7ff6 1b3d 1efe bd3e 1876 8e3d d161 c63c
00000070: 7aac 993d 218b 113e ad02 193d baf6 223d
00000080: eac0 36bd 4dfa 45bc ffa2 283e 16ea 4ebd
00000090: fe8d b3bd 8c7d 54bd a764 07bb 6fff 4abc
000000a0: ef94 d9bc 9952 063e 2bd3 7d39 35f3 283e
000000b0: 93c7 403c 53e2 32bd 62a2 663c 55c4 563d
000000c0: 5de6 323d b946 ed3c ddba 01be ec3c 5d3e
000000d0: 221c 41bd 0778 703e 56ec dfbd 1758 b43c
000000e0: 5cd6 373d 6240 c73d 2ca4 84bd a2ad a33e
000000f0: 525f 263c 8df7 c63c 870c 25bd 341a 00bd
00000100: 869d 2e3e 44ae 93bd efa4 d0bc 6013 583b
00000110: 840e 053e cf34 343e b41e 46bd 4a9e c53c
00000120: a174 d23d bafa cebc a745 90bd 302f aabc
00000130: 0618 3dbd 5943 bfbd 3615 b23c 5b40 15bd
00000140: c9eb 81bd b086 713e 6145 2a3c 6d94 823d
00000150: d330 48bd 5345 d13e 8c09 88bd a6e7 eb3e
00000160: 31df 16bc 006d b13d 0a0c 453e 9f33 763c
00000170: 8581 dc3c 62a1 db3c 1662 0d3d 0424 6f3e
00000180: 7cc0 703c 322e 7f3c 7ee1 b9bc f1ee 8fbd
00000190: 2388 6cbd 5863 6dbd 89e0 abbd 228f 283e
000001a0: 6181 9a3e d24c 1dbd 0e56 6ebd 5437 d03c
000001b0: 1212 bd3d 6e0f a4bd 0b9e 80bd edfc 923e
000001c0: c839 133c 2be5 eb3d a93f 4f3d c09d 893d
000001d0: a05c 83bb f2b9 c03c 6f21 33be ec6d a8bc

weight f4 [84, 120]
-0.085404605 -0.005771411 -0.100318834 0.0080906795 0.018677695 0.054413427 0.07302439 0.008365191
-0.10052086 -0.03500739 -0.077151656 -0.06726261 0.068334386 0.08606804 -0.00958803 -0.021264859
-0.07910998 0.005116161 0.027353367 0.021018809 -0.063269556 -0.083680995 -0.013227921 -0.01716272
-0.011369694 -0.09507494 -0.01385961 0.038146332 -0.10777313 -0.02873633 -0.06659328 -0.051815793
0.052793045 0.027935373 0.050074413 -0.075059704 -0.04695698 0.043623514 -0.08774817 0.07599907
-0.006551866 -0.078237005 -0.09653118 0.052728213 -0.025881795 -0.049839824 -0.05370067 -0.06452978
0.070260674 0.08855196 0.05060457 -0.0003385046 0.044565167 0.013128526 -0.04936574 -0.020004245
0.026462283 -0.018584903 -0.06375024 -0.035687003 -0.022699386 -0.062664025 0.08054907 -0.090460554
-0.105112694 -0.060145095 0.03353283 -0.083768256 -0.059877194 -0.07236294 -0.06771142 -0.028726945
0.065414265 0.020974986 -0.08357559 0.06873522 0.01400856 0.018557284 0.024773248 -0.05666772
-0.08577342 0.0010757685 0.032945972 -0.029966995 0.068104714 -0.0031522266 0.0759658 -0.061470736
0.037041657 -0.03901823 0.06655968 0.045878384 -0.081935525 -0.07431938 0.06045984 -0.074941866
0.07580246 -0.062205903 -0.03790535 0.024793204 -0.0065919347 0.033291854 -0.0980555 -0.043406025
-0.08965003 -0.073858835 -0.04901223 -0.04390542 -0.10953608 0.0037293646 -0.0062436257 0.012270719
-0.041011017 -0.08534107 -0.08377301 -0.096604854 -0.009839618 0.07780346 -0.08784195 0.09101324
0.06860849 0.17014891 -0.056779075 0.11118011 0.1701503 -0.07695974 0.07488522 0.13165398
-0.25138494 0.052809592 0.22577722 -0.07907185 0.10557952 0.044986937 -0.0913609 0.14286828
0.10346849 0.17246747 0.04268653 0.043211028 0.04563697 -0.15582205 -0.069147535 0.0601248
0.070767984 -0.06477063 -0.049312644 0.010194573 -0.113681436 0.1888882 0.07697563 0.016873159
0.07092832 -0.012411174 -0.15382971 0.013324882 0.06112615 0.022699945 0.08116895 -0.07446242
-0.074769616 -0.13054857 -0.01981727 0.3867087 0.11506159 0.0041843452 0.038689908 -0.13402422
-0.13164872 -0.006286331 -0.36586425 0.013397896 0.050143853 -0.014929925 0.015085242 -0.059305392
0.0060890666 -0.052665554 -0.055778135 0.22493365 -0.14850602 0.07550141 0.00834985 -0.33545634
0.32220346 -0.026462913 -0.051214363 -0.043139517 -0.10173166 -0.22257537 0.006033544 -0.11572456
0.0041664024 0.013055815 0.095575675 -0.024480771 0.04360318 0.00577103 -0.06939454 0.07279985
0.057977393 0.16201638 -0.011503429 0.0230576 0.015596294 0.06539474 0.019028895 -0.05621488
0.028230986 -0.17629495 -0.21169804 -0.082946725 -0.07281811 0.019696685 -0.06808161 -0.08054508
-0.07899819 -0.080838986 -0.011105924 0.07339017 -0.054995332 0.0076428573 0.18654178 0.24189375
0.18008357 0.043138348 0.042606384 -0.08853711 0.053021207 -0.108636014 0.010978318 0.12696949
-0.042473797 -0.15018034 0.0866482 0.13556439 -0.06756609 0.03370732 -0.06758545 0.051802248
-0.035835735 0.07871257 0.0032643403 -0.15287237 0.049595933 -0.014064116 -0.031755723 0.023651158
-0.04281839 0.032530554 0.24585597 0.07156245 0.22597092 -0.0076349373 -0.01840561 0.14903793
00000000: 9ce8 aebd 1b1e bdbb f673 cdbd c58e 043c
00000010: f701 993c 9de0 5e3d d08d 953d 270e 093c
00000020: e1dd cdbd e963 0fbd b001 9ebd fbc0 89bd
00000030: e6f2 8b3d 7144 b03d 1d17 1dbc a433 aebc
00000040: 6a04 a2bd 78a5 a73b 2b14 e03c a32f ac3c
00000050: 7893 81bd f160 abbd ecb9 58bc d598 8cbc
00000060: f447 3abc a6b6 c2bd 6b13 63bc 543f 1c3d
00000070: 29b8 dcbd 7468 ebbc 0f62 88bd cc3c 54bd
00000080: 853d 583d b9d8 e43c d41a 4d3d e7b8 99bd
00000090: f655 40bd 92ae 323d 50b5 b3bd 67a5 9b3d
000000a0: 09b1 d6bb b93a a0bd 24b2 c5bd 8af9 573d
000000b0: 0f06 d4bc d824 4cbd 3cf5 5bbd 3028 84bd
000000c0: d4e4 8f3d bb5a b53d bd46 4f3d 5179 b1b9
000000d0: f789 363d 0719 573c bb33 4abd f1df a3bc
000000e0: 6ec7 d83c 5e3f 98bc 7c8f 82bd 892c 12bd
000000f0: 10f4 b9bc ff55 80bd e9f6 a43d 6243 b9bd
00000100: 5345 d7bd b45a 76bd b959 093d b18e abbd
00000110: ca41 75bd 0533 94bd 49ac 8abd c554 ebbc
00000120: eaf7 853d bcd3 ab3c ae29 abbd 0dc5 8c3d
00000130: 2984 653c 7205 983c 44f1 ca3c 691c 68bd
00000140: faa9 afbd cd00 8d3a 5bf2 063d 587d f5bc
00000150: 7c7a 8b3d 9695 4ebb f593 9b3d bdc8 7bbd
00000160: feb8 173d 94d1 1fbd 7150 883d f9ea 3b3d
00000170: d0cd a7bd c234 98bd bda4 773d 1f7b 99bd
00000180: 523e 9b3d 9ecb 7ebd a442 1bbd 1e1b cb3c
00000190: 2801 d8bb 0a5d 083d 52d1 c8bd 84ca 31bd
000001a0: 6f9a b7bd 4d43 97bd 0cc1 48bd 2bd6 33bd
000001b0: 7454 e0bd 5b68 743b 5497 ccbb 200b 493c
000001c0: 2bfb 27bd 4dc7 aebd 2f91 abbd c4d8 c5bd
000001d0: 5936 21bc 6c57 9f3d 7be6 b3bd 2665 ba3d
000001e0: 9c82 8c3d 843b 2e3e 2d91 68bd 66b2 e33d
000001f0: e13b 2e3e 119d 9dbd 6c5d 993d 4dd0 063e
00000200: 87b5 80be df4e 583d 2532 673e 6cf0 a1bd
00000210: 133a d83d 3944 383d 6c1b bbbd 104c 123e
00000220: 4ae7 d33d 509b 303e 12d8 2e3d 0cfe 303d
00000230: d5ed 3a3d d18f 1fbe 399d 8dbd 6c45 763d
00000240: ceee 903d 77a6 84bd 0efc 49bd 2307 273c
00000250: d0d1 e8bd e96b 413e 66a5 9d3d 9439 8a3c
00000260: de42 913d 3d58 4bbc 8985 1dbe 9b50 5a3c
00000270: 6a5f 7a3d 3cf5 b93c e83b a63d c17f 98bd
00000280: d020 99bd 86ae 05be d457 a2bc affe c53e
00000290: 69a5 eb3d d51c 893b 4f79 1e3d a53d 09be
000002a0: ecce 06be 91fd cdbb 8f52 bbbe d982 5b3c
000002b0: a463 4d3d a59c 74bc 1728 773c 36ea 72bd
000002c0: cb86 c73b d6b7 57bd 9d77 64bd 0255 663e
000002d0: f611 18be 7ca0 9a3d cfcd 083c efc0 abbe
000002e0: daf7 a43e c0c8 d8bc 27c6 51bd 10b3 30bd
000002f0: b058 d0bd ccea 63be 09b5 c53b 0001 edbd
00000300: 5186 883b 0fe8 553c 2ebd c33d e68b c8bc
00000310: 4099 323d e91a bd3b b91e 8ebd 1618 953d
00000320: b479 6d3d 9fe7 253e e178 3cbc 4be3 bc3c
00000330: 9987 7f3c aded 853d 7ce2 9b3c 9341 66bd
00000340: ab44 e73c aa86 34be 5fc7 58be f9df a9bd
00000350: a921 95bd f15a a13c 5f6e 8bbd d2f4 a4bd
00000360: cec9 a1bd e98e a5bd 9ff5 35bc 964d 963d
00000370: c942 61bd ef70 fa3b cf04 3f3e ffb2 773e
00000380: d467 383e d6b1 303d 0884 2e3d f252 b5bd
00000390: c42c 593d 8f7c debd 67de 333c 4a04 023e
000003a0: 01f9 2dbd e0c8 19be 9d74 b13d 64d1 0a3e
000003b0: 1760 8abd b010 0a3d 3e6a 8abd 982e 543d
000003c0: 7ec8 12bd 0e34 a13d 8bee 553b 938a 1cbe
000003d0: 1b25 4b3d 2e6d 66bc 4a12 02bd 13c0 c13c
000003e0: 5662 2fbd c23e 053d abc1 7b3e 558f 923d
000003f0: ec64 673e 7f2e fabb 5dc7 96bc 669d 183e

bias f4 [84]
-0.039184667 0.22215578 0.039079566 0.078638874 0.13808753 -0.067515634 0.27367762 0.1989617
0.036962446 0.18712762 0.010287066 0.3347831 -0.09966631 -0.073771894 0.16057926 -0.07762203
0.16690163 0.036900908 -0.1839182 0.10533557 0.14198276 0.060912233 0.17745186 -0.071923345
0.0036283182 0.4244367 0.0014689218 0.054686684 0.21005328 0.31679356 0.20310068 -0.038042206
0.22730027 0.21741186 -0.12133262 0.45009083 0.15530111 -0.069462806 -0.03641771 -0.19302061
-0.17060775 -0.24783285 0.088518254 0.15086786 0.12883706 -0.008796337 0.24352446 -0.0802361
-0.0386342 0.07311262 0.18468072 -0.017905552 -0.10056283 -0.08578371 -0.069520846 0.14964467
0.19024573 0.19085856 -0.02503444 -0.08875944 0.21280687 0.059764486 0.073833756 0.21618092
0.1423803 0.21879007 -0.20900215 -0.13112806 0.116658255 0.06495857 0.0055093626 0.03931724
-0.10890895 0.0933601 -0.022127576 0.36318788 0.06299267 -0.15651447 -0.05069895 0.1962855
-0.08766766 0.254988 -0.13126145 -0.0536344
00000000: 1a80 20bd ce7c 633e e511 203d 6b0d a13d
00000010: d166 0d3e a345 8abd 791f 8c3e 9ebc 4b3e
00000020: ef65 173d 629e 3f3e 158b 283c b168 ab3e
00000030: da1d ccbd b815 97bd e46e 243e 4df8 9ebd
00000040: 43e8 2a3e 6825 173d 0d55 3cbe 2dba d73d
00000050: ee63 113e 1b7f 793d f1b5 353e 8c4c 93bd
00000060: 14c9 6d3b c44f d93e d688 c03a 25ff 5f3d
00000070: 3518 573e c432 a23e a0f9 4f3e 25d2 1bbd
00000080: 67c1 683e 37a1 5e3e 3d7d f8bd 4e72 e63e
00000090: 4107 1f3e 8442 8ebd bd2a 15bd 32a7 45be
000000a0: ccb3 2ebe e5c7 7dbe 0f49 b53d 1b7d 1a3e
000000b0: dded 033e 831e 10bc 7a5e 793e d352 a4bd
000000c0: e53e 1ebd 12bc 953d f11c 3d3e aaae 92bc
000000d0: e3f3 cdbd 5faf afbd f260 8ebd 743c 193e
000000e0: c7cf 423e 6d70 433e 0715 cdbc 82c7 b5bd
000000f0: 0bea 593e 9bcb 743d 2736 973d 885e 5d3e
00000100: 24cc 113e 810a 603e a904 56be 6f46 06be
00000110: 86ea ee3d 0009 853d e287 b43b 1d0b 213d
00000120: a80b dfbd 9533 bf3d e444 b5bc c3f3 b93e
00000130: 4d02 813d 5445 20be b4a9 4fbd 11ff 483e
00000140: 1a8b b3bd ca8d 823e 6769 06be bfaf 5bbd

weight f4 [43, 84]
0.10549311 -0.2865698 0.16883533 -0.07723866 0.107461676 0.027155442 0.085143074 -0.16783704
0.0870249 -0.19215824 0.06289762 0.05736358 0.031164678 0.07282695 0.07637417 -0.13787009
-0.04902134 0.10134845 -0.32285848 0.15984099 -0.07705958 0.078880385 0.055022925 0.04570674
-0.003679057 0.1293452 0.042632185 -0.62025297 0.30740374 -0.28448823 -0.17687495 -0.08773241
0.10371867 -0.20645912 0.07382354 -0.11335786 -0.44060326 0.03911365 -0.061539907 -0.18057248
0.28595716 0.28768557 -0.053698298 0.2553534 -0.40613973 0.019617263 -0.2072328 0.15432028
-0.033581473 -0.12185532 -0.12327358 -0.13714404 0.22051735 -0.12667693 -0.38814014 -0.06330108
-0.66349065 -0.08783847 -0.114372276 -0.031246936 -0.061185163 -0.025612848 -0.30219093 -0.02711544
0.15345626 -0.019925898 -0.28049147 0.13298154 -0.41200817 0.008018425 0.0008965 0.30244723
-0.5796019 -0.041402258 -0.22848426 -0.4179482 0.10964849 -0.18519928 0.0058760513 -0.4771949
0.084020406 -0.12360989 0.29916832 0.053697355 0.0012216679 -0.3368861 -0.011491492 0.00050175533
-0.13823245 -0.036473352 0.15827416 -0.10219068 -0.12400632 0.17283748 -0.24077538 0.13540965
0.008153523 -0.080561504 0.24003941 0.019878428 0.17665286 0.14345194 -0.28765112 0.06233859
0.17886604 0.03490079 0.057635814 -0.06733532 -0.19065484 0.17454939 0.124961466 -0.09763764
0.047078736 -0.17289704 -0.0025709434 0.03855859 -0.08752861 -0.26624027 0.0645337 -0.079174966
-0.017480543 0.0069914907 -0.50911325 -0.29453272 0.075441584 -0.33044234 -0.14912842 0.13909519
-0.16120273 0.035730626 -0.22974525 -0.06547349 0.049676366 -0.06960776 -0.11856317 -0.28033477
-0.017915668 0.0067183366 -0.1305781 0.14384414 -0.4242904 -0.026608557 -0.063296184 0.06446542
0.21153715 0.035070486 -0.2516546 -0.02009909 0.02895843 -0.122520715 0.1487164 -0.015090135
-0.329791 -0.05827371 0.01764173 0.17486973 -0.3549664 0.20981935 -0.07354943 0.032643627
0.10425961 0.057867248 -0.08463196 0.0009278704 0.017178908 -0.08520301 -0.1660311 0.003905393
0.0026725498 -0.085961066 0.0077085397 0.13697942 -0.12634738 0.024556104 0.13849354 0.14319849
0.044022996 0.081972405 -0.21488978 0.1091487 -0.07516418 -0.07645976 0.17957127 -0.028122155
0.11472218 -0.016816285 -0.044973616 0.040998943 -0.12860307 0.0025104617 0.12585649 -0.020816134
-0.2858565 0.12795097 -0.035977647 -0.06609408 -0.09534052 -0.023141438 -0.23893656 0.023247909
0.17387152 0.0062102512 0.1113793 -0.24070065 -0.054863285 0.085961044 -0.2754558 -0.23715423
-0.17146392 -0.19455785 0.11890745 0.01599615 -0.1924006 0.022933334 0.28528535 0.07441034
-0.05313685 0.074400134 -0.04950727 -0.4308973 -0.3954706 -0.08843586 0.20411856 0.14065081
-0.13466473 0.07614973 -0.081325375 -0.07697378 0.08094809 -0.30209327 0.187174 -0.060832866
0.0048447694 -0.34427926 0.023992484 0.07668955 0.023259101 -0.04359868 -0.091706716 -0.16132137
-0.06541763 0.0923102 -0.42340264 -0.04796756 0.120732725 -0.031863853 0.03309548 -0.2896289
-0.019710539 0.02321823 -0.35952163 -0.074384995 -0.10550341 0.08591838 0.08750838 -0.30562246
00000000: c60c d83d 47b9 92be 2be3 2c3e 4d2f 9ebd
00000010: de14 dc3d 1775 de3c 7e5f ae3d 79dd 2bbe
00000020: 1c3a b23d 21c5 44be 78d0 803d 13f6 6a3d
00000030: 114d ff3c 4c26 953d 106a 9c3d d12d 0dbe
00000040: 9aca 48bd c78f cf3d b54d a5be 5bad 233e
00000050: 6ad1 9dbd 0a8c a13d b85f 613d fe36 3b3d
00000060: 551c 71bb 1173 043e 169f 2e3d e6c8 1ebf
00000070: 0664 9d3e 71a8 91be b51e 35be 0dad b3bd
00000080: 746a d43d 056a 53be cc30 973d 2a28 e8bd
00000090: c096 e1be a235 203d 4511 7cbd fee7 38be
000000a0: fa68 923e 864b 933e bff2 5bbd aebd 823e
000000b0: 8cf1 cfbe 62b4 a03c d634 54be 2306 1e3e
000000c0: ba8c 09bd 488f f9bd dc76 fcbd 7d6f 0cbe
000000d0: 4dcf 613e 99b7 01be 4eba c6be ffa3 81bd
000000e0: 86da 29bf a8e4 b3bd 033c eabd 93f9 ffbc
000000f0: 4b9d 7abd 09d2 d1bc c5b8 9abe 3321 debc
00000100: a323 1d3e a33b a3bc 949c 8fbe 502c 083e
00000110: bcf2 d2be b65f 033c 1903 6b3a 5dda 9a3e
00000120: ca60 14bf 6a95 29bd c7f7 69be 4efd d5be
00000130: 638f e03d e1a4 3dbe e48b c03b e452 f4be
00000140: e412 ac3d 2f27 fdbd 972c 993e c2f1 5b3d
00000150: 5f20 a03a 567c acbe d046 3cbc 3b88 033a
00000160: cf8c 0dbe 1565 15bd 9f12 223e 5949 d1bd
00000170: 07f7 fdbd 4ffc 303e d28d 76be d4a8 0a3e
00000180: 5b96 053c 6efd a4bd e4cc 753e 16d8 a23c
00000190: 7de4 343e 11e5 123e 0247 93be c056 7f3d
000001a0: a928 373e 21f4 0e3d 8813 6c3d 1ae7 89bd
000001b0: 063b 43be 13bd 323e cceb ff3d 3ef6 c7bd
000001c0: a2d5 403d ec0b 31be 467d 28bb 9def 1d3d
000001d0: 3342 b3bd a550 88be 3f2a 843d 7c26 a2bd
000001e0: 5b33 8fbc e018 e53b 3f55 02bf fecc 96be
000001f0: 1e81 9a3d bd2f a9be 1fb5 18be f86e 0e3e
00000200: 5412 25be 475a 123d 5742 6bbe f716 86bd
00000210: 7279 4b3d 838e 8ebd 3fd1 f2bd 0a88 8fbe
00000220: e1c3 92bc 7e25 dc3b 44b6 05be e14b 133e
00000230: 973c d9be 30fa d9bc 6ea1 81bd 7206 843d
00000240: 329d 583e 12a6 0f3d dfd8 80be d9a6 a4bc
00000250: 3b3a ed3c 24ec fabd 1d49 183e 9d3c 77bc
00000260: 5eda a8be 6ab0 6ebd 6485 903c 0d11 333e
00000270: 28be b5be e2da 563e 15a1 96bd 53b5 053d
00000280: 1086 d53d 3506 6d3d 8553 adbd 543c 733a
00000290: c8ba 8c3c ea7e aebd 0f04 2abe 9ff1 7f3b
000002a0: f225 2f3b 5b0c b0bd eb97 fc3b 5544 0c3e
000002b0: 3561 01be e229 c93c 40d1 0d3e a0a2 123e
000002c0: 7551 343d 26e1 a73d 110c 5cbe 5b89 df3d
000002d0: adef 99bd ef96 9cbd 88e1 373e 6f60 e6bc
000002e0: 76f3 ea3d 4ec2 89bc 4136 38bd 82ee 273d
000002f0: 86b0 03be 8f86 243b 86e0 003e 9986 aabc
00000300: c85b 92be 9405 033e 4c5d 13bd 555c 87bd
00000310: e441 c3bd 1d93 bdbc c9ab 74be 6672 be3c
00000320: 600b 323e 5d7f cb3b d51a e43d 3b7a 76be
00000330: 53b8 60bd 580c b03d 8b08 8dbe 8fd8 72be
00000340: 3d94 2fbe 2c3a 47be c085 f33d 5c0a 833c
00000350: aa04 45be b0de bb3c ec10 923e 7364 983d
00000360: 07a6 59bd 195f 983d 23c8 4abd 929e dcbe
00000370: 1f7b cabe dc1d b5bd 7504 513e c406 103e
00000380: 8de5 09be 64f4 9b3d eb8d a6bd 6ea4 9dbd
00000390: 1dc8 a53d f8ab 9abe 8baa 3f3e e22b 79bd
000003a0: dfc0 9e3b 5f45 b0be e38b c43c 690f 9d3d
000003b0: df89 be3c 8894 32bd bbd0 bbbd 6e31 25be
000003c0: aef9 85bd 210d bd3d 3bc8 d8be a279 44bd
000003d0: b842 f73d ac83 02bd 208f 073d 3d4a 94be
000003e0: ff77 a1bc 2834 be3c 3813 b8be 2957 98bd
000003f0: 2c12 d8bd faf5 af3d 9837 b33d 8c7a 9cbe

bias f4 [43]
-0.28588971 0.094563484 0.12417024 0.22477336 0.1050709 -0.05384431 0.16978294 0.10641379
0.21790634 -0.04898821 -0.23540413 -0.1226554 -0.04241295 0.040193137 -0.1098011 -0.07999924
-0.41123518 -0.29240763 0.012211538 -0.1616852 0.26180828 -0.06039524 -0.2302849 -0.03794203
0.22131687 0.1386837 -0.1139795 -0.008582923 -0.033072975 -0.14605482 0.056665536 0.2004796
0.40968227 -0.062567905 -0.2573111 0.12268087 0.1022467 -0.053323224 -0.007790554 -0.11238767
0.1266315 -0.26825514 -0.048181135
00000000: 2360 92be 80aa c13d f74c fe3d fd2a 663e
00000010: 692f d73d da8b 5cbd 94db 2d3e 79ef d93d
00000020: d722 5f3e dca7 48bd c80d 71be c132 fbbd
00000030: 34b9 2dbd 8fa1 243d 66df e0bd a4d6 a3bd
00000040: 6b8d d2be 74b6 95be e712 483c ce90 25be
00000050: bc0b 863e 0061 77bd cecf 6bbe 1a69 1bbd
00000060: e4a0 623e 1a03 0e3e 166e e9bd 639f 0cbc
00000070: 8777 07bd 658f 15be 1f1a 683d 864a 4d3e
00000080: e0c1 d13e 9a23 80bd 48be 83be 1c40 fb3d
00000090: b866 d13d 7469 5abd e747 ffbb 822b e6bd
000000a0: b0ab 013e bd58 89be 9559 45bd
