models/lenet.pth (torch, 263623 bytes, 10 tensors)

weight f4 [6, 3, 5, 5]
00000000: 824e 533e c9ce a53d 0cce 833c 3f9d 513e
00000010: 0b61 423e 8002 b7bc df63 61bd a821 8cbe
00000020: 731c a83c 6b2a d03d 8a16 2dbd 9607 e2bd
00000030: cae5 b3be d3bc 8bbe 1c2e f5bd 5215 49bd
00000040: 29ca 30be be57 ccbe 1e36 e8be af8e 1abe
00000050: 0940 263e 347a c8bd 373f 64bd 77ec a5bc
00000060: d846 1fbc 990e 283e cdd2 22bd af5b af3b
00000070: b1ab 303e c10a 06bd 4e6c cd3d 8dcc 84bc
00000080: 15c1 39be 5c9d 243d 64ee ff39 8aa2 183e
00000090: da31 7b3d 03cf 88be 765a 7bbd 9bb5 2ebe
000000a0: 91e2 643e 2f7b 38bd 56bf 22be c363 b0be
000000b0: f87e 72be 817d 8e3e 7a96 a83d 2e67 68be
000000c0: e19e 5e3c d1ab 1dbe 061a 293e 5739 873d
000000d0: 7290 053d cb3b 893e b357 5bbd 3c06 a33c
000000e0: 69d8 2c3d f7c2 18bb 2e63 e53d 8f17 a53d
000000f0: 9258 673e fa7b 0b3e 5ab5 63bd 6684 233e
00000100: 0dff ef3d 5fef 823e b857 d83d 2641 5ebd
00000110: 72b3 f6bd e7c8 c0bd 7425 723e 4d6e 6d3e
00000120: 8b26 293c d2e5 563e a238 b63d 308c 9a3d
00000130: ba6e 9b3e f978 c03e 61a6 a93e 58e6 0f3e
00000140: 964c 753c 3564 513e cf4f 653e 6ece c03e
00000150: 5fe3 793e 41cf ac3d 652d d13d b9b1 833b
00000160: 91ee b03d 42f5 dc3e e2cd 0d3e 5a4d 673e
00000170: 3cba 413d ebff b0bd 3f72 2dbe c29d 0c3e
00000180: 5f07 c43e c4f3 423e 4f42 ce3c b646 9cbe
00000190: 918b 7fbc 7a4f 073e cb15 c53d ab4f a53e
000001a0: 03a7 a03e c4d5 35be f71f 66be 55a9 9fbc
000001b0: 20b0 103e 992c cb3e dc5a efbd dd9f a8be
000001c0: aa07 9bbe f322 4cbc 6d3e 593e 5141 83bc
000001d0: c2af 06be 026d c1be 56ae 1ebf c62f c0be
000001e0: 55a8 203e 6f1e ca3d 9125 35bd 458a 01bf
000001f0: 71b9 07bf 7775 3dbd 5f96 ccbc 3b86 463e
00000200: 099d aa3e f572 2e3e a327 5ebe 16de 07bd
00000210: 77bf b9bb 0226 433e 265c c53e 0b8f 07be
00000220: 3f8d afbe a706 82be 8942 47be fd94 8b3e
00000230: e266 21bd cfb9 5abe 0e35 98be de94 f0be
00000240: 4127 a1be 07b6 383e 5d31 0d3e ead3 2bbd
00000250: 5427 efbe 3f26 c7be 6274 40bd fda2 073c
00000260: 9649 7abd a6f8 d03d 3256 89bd 727a 5a3d
00000270: f091 d43c db47 d6bd 6743 29bd d6ce d13d
00000280: a8ab f8bd b3e3 173d 0670 abbc 39de dcbd
00000290: 693f 593d c3d1 b3bc 1c9f 253d e2d0 a9bd
000002a0: 3449 87bd c06f ac3c 0e8c c43d 559e 453d
000002b0: 00a9 9ebd 95a6 bfbd 748a 873d 9360 71bc
000002c0: 6e8a dcbc c191 753c 047d 003b 0166 6abd
000002d0: 23b8 dabd 5523 01be b708 623d 0140 c1bd
000002e0: 927e f1bd e0f5 d9bc 5723 103d 0cbf a1bd
000002f0: 1ab9 f63c eb92 f5bd 6fec 6ebd 336d 8d3d
00000300: 1488 97bd d919 56bd 8af4 d23d c614 8b3c
00000310: 48e0 20bd cdbb 933c 1e65 16bd b384 ab3c
00000320: 5d8e 31bd 3916 dcbd 7d0f 41bd 4ab6 a6bd
00000330: c289 643c 8650 c9bb d0bb ddbd 75c5 a0bd
00000340: 4c76 9dbd cebb c9bd ec43 ac3b 66e8 c5bd
00000350: 94b6 093d acf9 fabd 8ef2 9abc 60f3 30bd
00000360: dc95 a4bd cfbf ad3d 627f 253c b446 b2b9
00000370: 5eae 38bd 78ba 883d 7572 383d 66bc 8bbd
00000380: 195b 97bc c021 0ebc 54fc 5fbe b880 8abe
00000390: 27c0 a3be 30a4 38be 5ac8 11be ea0b 2d3e
000003a0: fa46 3a3e 6684 963d 1ace c6bd 0786 4a3d
000003b0: 8dca e93e 665a 023f cb93 a73e 9f58 ca3c
000003c0: efa2 303d 7a36 833e ce66 003f 4949 073f
000003d0: bce8 ec3d 3bab a4bc 540e 123e d2c0 c63e
000003e0: 1f48 a43e 04e1 353e fa7e 23be 5afe 2cbe
000003f0: ec6a 8dbe d633 f1be b14b c2be 525a 0ebe
0.20635417 0.08096082 0.016089462 0.20470141 0.18982331 -0.02234006 -0.055026885 -0.27369428
0.020521378 0.101643406 -0.042257823 -0.11036603 -0.35136253 -0.272925 -0.11971685 -0.0490926
-0.17264618 -0.39910692 -0.45353788 -0.15093492 0.16235365 -0.097889334 -0.05572435 -0.020254357
-0.00972148 0.16411819 -0.039751817 0.0053515057 0.17252995 -0.0327251 0.10030423 -0.016210819
-0.18140061 0.040189132 0.00048815005 0.14905754 0.06132684 -0.26720437 -0.061365567 -0.17061464
0.22352053 -0.045039352 -0.15893301 -0.34451112 -0.23681247 0.27830127 0.08231826 -0.2269561
0.013587684 -0.15397574 0.16513833 0.066027336 0.032608457 0.2680343 -0.053550433 0.019900434
0.042198572 -0.0023309567 0.11200558 0.08061134 0.2259238 0.13621512 -0.055592872 0.15968475
0.11718569 0.2557325 0.10563606 -0.05426135 -0.12045945 -0.09413319 0.236471 0.23186608
0.010324131 0.20986107 0.088975206 0.0754627 0.30357915 0.37592295 0.3313475 0.14052713
0.014971873 0.20448382 0.22393726 0.37657493 0.24403141 0.08437968 0.102137364 0.004018989
0.08639253 0.43155867 0.1384807 0.22588101 0.047296748 -0.086425625 -0.16938113 0.13732055
0.38286874 0.19038302 0.025178103 -0.30522698 -0.01559724 0.13213912 0.09623297 0.32287344
0.3137742 -0.17757326 -0.22473131 -0.019489923 0.14129686 0.39682463 -0.11687252 -0.32934466
-0.30279285 -0.012459504 0.2121522 -0.016022356 -0.13152984 -0.3777848 -0.61984766 -0.37536448
0.15689214 0.09869086 -0.04422528 -0.5060161 -0.53017336 -0.0462546 -0.024974046 0.19387142
0.33322933 0.1703604 -0.21694808 -0.033170782 -0.0056685763 0.19057468 0.38546866 -0.1323816
-0.3428745 -0.253957 -0.19458975 0.27262107 -0.039404757 -0.21359943 -0.29727978 -0.46988577
-0.3147526 0.18038188 0.13788362 -0.041950144 -0.46709692 -0.38896367 -0.04698599 0.0082786055
-0.061105333 0.10203676 -0.067058936 0.05333943 0.025948495 -0.10462924 -0.041324046 0.10244529
-0.12142116 0.037082385 -0.02092744 -0.10784573 0.05303899 -0.021950608 0.04043494 -0.08291794
-0.06605759 0.02104938 0.09597026 0.0482467 -0.07747078 -0.09357945 0.06618205 -0.014732498
-0.026921477 0.014988364 0.0019605765 -0.057226185 -0.106796525 -0.12611134 0.055184092 -0.09436036
-0.117917195 -0.0266065 0.035189953 -0.078977674 0.03011756 -0.11990913 -0.05833095 0.06905594
-0.07399002 -0.052270744 0.103005484 0.016977679 -0.03927639 0.018033886 -0.036717527 0.0209373
-0.04334866 -0.10746426 -0.04713391 -0.08140238 0.01394886 -0.0061436323 -0.10826838 -0.07850162
-0.07688579 -0.09850274 0.0052571204 -0.09663467 0.033621386 -0.122546524 -0.018914487 -0.04320085
-0.08036396 0.0848385 0.010101171 -0.00034003484 -0.045088165 0.06676191 0.04503103 -0.068230435
-0.018476056 -0.008675039 -0.218736 -0.2705133 -0.31982538 -0.18031383 -0.14236584 0.16899076
0.18191138 0.07349472 -0.097072795 0.049444225 0.45662346 0.5091919 0.32729945 0.024700461
0.043124136 0.256275 0.5015687 0.528462 0.11567828 -0.02010118 0.14263278 0.38818985
0.32086274 0.17761618 -0.15966406 -0.16893902 -0.27620637 -0.4710986 -0.37948373 -0.13901642

bias f4 [6]
00000000: c5fe b23e 537c 423e 0f94 f1bd 6b48 2abb
00000010: b128 e2bd d88c c4bd
0.3496 0.18992738 -0.11795818 -0.0025983106 -0.110429175 -0.09597176

weight f4 [16, 6, 5, 5]
00000000: c65a a7bd bdb9 563d 2999 853e 29a1 0c3e
00000010: be11 f83d f514 83be 8790 013e acb0 e83e
00000020: 3f7b 813e d36d cd3d 5e88 e4be 863a 023e
00000030: 7e4d 3d3e 9825 86bd ead7 663e 5df1 67be
00000040: e9c3 80bd 2982 0d3d 11f2 23bd 51bd dd3d
00000050: 19d6 933e 86f5 6b3e 307e 653e 3f65 913e
00000060: 1fbb dd3d 6e02 05be 5108 62bd e206 53bd
00000070: 5505 e73d fb69 12bd 81de fabe 9bb4 54bd
00000080: ded4 bcbc 7a83 d0bc 34ac a23d c8e3 ecbe
00000090: aace 83be 50a2 1abf 36e8 f4be bc87 8dbd
000000a0: 593e cf3d 3da8 d1be 8dfc 19bf e124 4fbe
000000b0: 1476 35bd 487a 7a3e dbe6 0e3c 5a03 cbbd
000000c0: 1fcc c23d 5301 91bc 99b6 5dbd 4f6d 673d
000000d0: 6b13 c03c 208b 803d 75d7 643d cf3d 813c
000000e0: ae44 41bc e441 aabc 2509 aebc ea52 313d
000000f0: 60bc 603d 86bd 9fbd 4138 fb3c a2cf a3bc
00000100: 1ade 5fbc c66b 203d 78af 99bd 58b1 9e3c
00000110: 5aae 313d 1ec1 a93c 06d0 25bd 2d56 3e3c
00000120: 88c1 553d 3904 383d 0697 783d a9ef f5bb
00000130: 8f6f 133e 0e0d 093e 4dfc 983d baa8 153e
00000140: 501e 873d 8de7 133c 9e5a 1dbc 1b5e 7d3d
00000150: 9591 353d 2980 a63d 2b7e b83d 60ba 07be
00000160: 4c68 3c3d 8b20 1c3d c4aa e5bd e25c c5bc
00000170: 8d2b f1bd 0d3a 26bd 6700 5cbd 19b6 5fbe
00000180: 63aa 67be 49ec 5fbe a840 c6bc d606 02be
00000190: 8934 28bd 827a aebd 11da debc 2fbe b8bd
000001a0: 0e10 dbbd 3599 aebb fce4 bbbc c6f5 2bbd
000001b0: 4c96 9dbc 51be a2bb 5063 393e 0ed3 eebd
000001c0: d7d4 88bd 31ae 6cbd ecae fa3c f9c8 653e
000001d0: 8b6c a4bd ce41 2fbc 0d52 a23d 173c 013e
000001e0: 8272 9b3a 1185 0ebe 94de 943d 89af 46bd
000001f0: 46d5 383d 16b3 b4bd 6352 cb3d 495f 353d
00000200: 6a6c 183e 29b8 353d 65c7 383c 49da 4f3e
00000210: 94b9 4d3e e516 d43d a2b1 3f3e 577e 313e
00000220: a3e1 823e 4cdc 6a3d 7d34 7e3d 36c0 4d3e
00000230: 078d 183e d0e5 263e 0f8f 11bc be0e 3a3e
00000240: 8f7f 033e 15d1 92bd a649 61bc b39d dabd
00000250: 7d85 4fbb f338 ae3c 4933 123b 4a99 833e
00000260: f59e 9b3e d9f2 8b3e 9e28 133d e823 88be
00000270: 4ea5 c5be 6eb7 2e3e 22d5 f03e bb14 e23d
00000280: 9b65 a3be 36ba a9be 13d3 193e 7a3b 1f3f
00000290: e9be 453e c483 45be 96ee a7be 9ceb 54be
000002a0: 5eb0 b83e 12da 953e b824 573d f661 88bd
000002b0: 824d 79be 1fac 19bd b9d8 633d 7cf6 91bd
000002c0: 6a14 96bd 881d d43d bd35 273e 9eb2 933d
000002d0: bffc e2bd 1aad 0bbf db5e b1bd 3fcd 01be
000002e0: fd1b ccbc dadc 523e 256e c2bc 89c8 c1be
000002f0: af80 ffbd bc2a f3bc f641 033e eed5 3fbc
00000300: aa1a d2be 7b17 dabe 00a7 e7bc 1c21 6c3d
00000310: f18c e6bb 5be6 8fbd 3d83 d0be ec08 2f3d
00000320: 2f43 99bd 2473 efbc 9c64 32bd ca5f 5b3d
00000330: 45d0 283c 4f92 3dbd 9515 b83b f452 9b3c
00000340: 3527 d9bc d52f 65bd dd7a 74bd c864 3d3d
00000350: 02ac 473c 8367 103d 79de 9fbd f79f 8f3d
00000360: 3d28 b73c 2be6 18bb 1386 1ebc 643f 69bd
00000370: bb5f 473d 6731 d33c 31b1 55bd 7b0e ae3a
00000380: 7ec1 403b 69fe b93d f875 0f3e 7cef cebd
00000390: e9b8 cbbd 520c 6f3c e28f 193e fbc3 1b3e
000003a0: 7021 e33d e264 87be 0c03 04be da3f 493d
000003b0: 9d95 443e 48be 453e 5c46 25be a8c8 6ebe
000003c0: bb5e 57bd b781 273b 6e6d 433e c5fe 6dbc
000003d0: 9c4e 7fbe 6d5b c4bd 218b c2bd bd03 b43d
000003e0: 48b2 323e b55e 953d 14d1 47bd af05 eabd
000003f0: 63cc 48be 9ce8 3dbe 0f5f 70ba 1d59 163e
-0.081716105 0.052423228 0.26093414 0.13733353 0.12112759 -0.25601926 0.12652789 0.4544729
0.25289342 0.10030713 -0.4463529 0.12717637 0.18486592 -0.06550139 0.22543302 -0.22650667
-0.06287367 0.03454796 -0.040025774 0.10827125 0.2887428 0.23042879 0.22411418 0.28397557
0.10826706 -0.12989208 -0.055183712 -0.051520236 0.11280314 -0.035745602 -0.48997882 -0.05193005
-0.023050722 -0.025453318 0.079430014 -0.46267533 -0.2574361 -0.6040392 -0.47833413 -0.06910655
0.10119314 -0.40948668 -0.60150987 -0.20228912 -0.04430206 0.24460709 0.008722032 -0.09912749
0.09511589 -0.017700827 -0.054129217 0.05650073 0.02344676 0.06276536 0.05586954 0.015776543
-0.01179616 -0.020783372 -0.021244595 0.043291964 0.05486715 -0.077998206 0.030666472 -0.019996468
-0.013663793 0.03916528 -0.07504171 0.019371673 0.043379165 0.020721968 -0.04048159 0.011617226
0.05218652 0.044925902 0.060690902 -0.0075053764 0.14398025 0.13383886 0.074699976 0.14615145
0.065975785 0.009027374 -0.009604124 0.061857324 0.04432829 0.08129913 0.0900844 -0.1325469
0.045997903 0.038116973 -0.112142116 -0.024092142 -0.11775885 -0.040582705 -0.05371132 -0.21846808
-0.22623591 -0.2186748 -0.024200752 -0.1269792 -0.041065726 -0.0851946 -0.027203592 -0.0902065
-0.106964216 -0.0053283223 -0.022936337 -0.041982435 -0.019236706 -0.004966535 0.18104291 -0.11661349
-0.06681221 -0.05778331 0.030600987 0.22439946 -0.080285154 -0.010696841 0.07925806 0.12620579
0.0011859688 -0.13917948 0.07269016 -0.048507247 0.04512527 -0.088232204 0.099278234 0.044280324
0.14885107 0.044365082 0.011278008 0.20298113 0.20090324 0.10355929 0.18720105 0.17333351
0.25562772 0.057338998 0.062061775 0.20092854 0.14897548 0.16298604 -0.0088842055 0.18169686
0.12841628 -0.071687855 -0.013750469 -0.1067461 -0.0031665259 0.02126739 0.00223084 0.25702888
0.30394712 0.27333716 0.035927407 -0.26589894 -0.3860268 0.1706216 0.47037607 0.1103911
-0.31913456 -0.3314988 0.15021925 0.6220013 0.19311108 -0.19288546 -0.32799214 -0.20793003
0.36072057 0.29267937 0.052525252 -0.066593096 -0.24345973 -0.037517663 0.055626605 -0.07127091
-0.073281124 0.10357195 0.16329093 0.07211803 -0.11083364 -0.5456101 -0.0866067 -0.12675951
-0.02491569 0.2059206 -0.023734162 -0.3784831 -0.12475716 -0.029683463 0.12818131 -0.01170872
-0.41035968 -0.4259604 -0.028277874 0.057648763 -0.0070358445 -0.07026359 -0.40725127 0.042733118
-0.074835174 -0.029229708 -0.04355298 0.05355815 0.010303562 -0.04628211 0.005617807 0.018960454
-0.026507953 -0.05595382 -0.059687484 0.04623869 0.012187006 0.035254966 -0.07806105 0.07012933
0.022358054 -0.002333055 -0.0096755205 -0.05694522 0.04867528 0.025780393 -0.052170936 0.0013279462
0.0029412205 0.09081728 0.14009845 -0.10104272 -0.09947378 0.01459034 0.14996293 0.1521148
0.11090362 -0.26444155 -0.12891787 0.04913316 0.19197698 0.19310868 -0.16140121 -0.23318732
-0.052580576 0.0025559494 0.19084713 -0.014526074 -0.24932331 -0.095877506 -0.09499193 0.087897755
0.17450821 0.072934546 -0.048783377 -0.11426865 -0.19609217 -0.18545765 -0.0009169438 0.14682432

bias f4 [16]
00000000: 83ff 203e 3ebc b6bc 1719 4b3d 4e5b 613e
00000010: f5b9 7d3e e169 143e 5755 533d 4148 92bd
00000020: 5f09 4a3e 8a8e 803c c0fe 713e 258e 3a3d
00000030: a3bf 5f3e 3e3c dd3d 1a51 1dbd 35cc 59bd
0.1572247 -0.022306558 0.049584474 0.22007486 0.24777968 0.14493515 0.05159506 -0.071426876
0.19730137 0.015692968 0.23632336 0.045545716 0.21850447 0.10802506 -0.038407423 -0.053173263

weight f4 [120, 400]
00000000: 4639 fd3b 338a 823c f6d5 903d d944 e43d
00000010: b8ee 983d 13e6 08bd e2bf 473e 131a 9a3e
00000020: 25f5 b63e e6a8 90bc 2b1e 63be a337 2cbe
00000030: cd56 22be 8789 a23d 5773 56bc 7000 c5bd
00000040: 0c9e bfbd cbca 10be 560e 363e 49b2 bfbd
00000050: 3f28 573d 8444 69be fc4a d3bd c87d 133d
00000060: d281 14be 47f1 103c 31d0 6cbd 7b24 c13a
00000070: 45b2 01bd dee6 d3ba 2242 34be 8e76 81bd
00000080: 2fd1 1e3e dcaf ab3d 5ce5 14bd a6a4 1fbe
00000090: 6238 d3be 910a 15bb 18fe 8e3d 099c 0dbe
000000a0: 9884 5cbc 6313 bfbe c2e0 7f3c 878e 2a3e
000000b0: c0df 8bbe c8cf fe3c 5de3 31be 60b9 7ebd
000000c0: 7e65 923e 39ee 25be c322 06bb 7e7c 69bd
000000d0: a2d9 b6bd 2e08 47bd e528 7bbd e544 0f3e
000000e0: b2ad cf3d 55eb 74be 54b4 35bd 8c5d b23c
000000f0: 27fc 1bbe 1f02 dabc 8306 8abd b654 81be
00000100: 64bd db3b 468e a0bc ecd4 1c3e 77ea 663d
00000110: 7737 56be fde9 873d 669a e33d caac 903e
00000120: 4fe1 9dbd 4924 85be 51c4 633d dc73 a2bd
00000130: 04de e4bd f379 ca3c bef0 b43c d09e 2e3e
00000140: 638f 353b 272a 22be fd85 a53d f645 21bd
00000150: c7a2 c73d 83a8 253e d320 733e 6f97 c53d
00000160: 404d f2bb f14a 9bbc 8dc8 463d 638a 483d
00000170: 016a 52be 136c cebc 5f32 6b3d 742b 6cbd
00000180: a3fe d53d 4a91 f0bc afdb 86bd b854 0c3e
00000190: 9a78 473d bc32 7fbd 6c83 22bd 3032 03be
000001a0: b4bc 353d e1c1 54bd 88fe 36be 3b6c 84be
000001b0: 1ebd 2d3d a109 983c c068 22be 95ce 923c
000001c0: d16d 3e3c 4a19 9a3d 6a3e 1ab9 7a35 513e
000001d0: 0357 9f3e 9c70 26bd f89b 0cbe 847e 033d
000001e0: 66b2 9a3e 6172 9a3d c9ab 403c 92d0 a13d
000001f0: 3fe1 fa3d 7683 a7bd 4f22 51be b5fb 39be
00000200: 4c03 65bd 7844 8dbe deff 763c 3cd3 34be
00000210: 5918 e4bd be8b 14be 0d57 83bd 0f85 9ebc
00000220: c951 f93d 6790 a6bd 47f8 3d3d 20c4 37be
00000230: e1ea e03d 97a7 c9bd 8526 72be 1deb 20be
00000240: c0ba 83be 782b 203d 9fca e83d 43c7 81bd
00000250: dd32 bcbd b659 4d3e 9697 b1bd ca33 cebc
00000260: 628d 94bd f0fd bf3a 9e18 85bd 5d2c cfbd
00000270: 867f 84bd fdc8 813b df83 943d 6f83 82bd
00000280: 7edd 10bf 202e f0be 2399 f8bb bad6 8e3d
00000290: 3559 963c c3ea fd3d 6796 9d3e 026f 7d3e
000002a0: 0e97 bd3d 5ec7 32be 6d35 c23c 1df6 ecbc
000002b0: c2d7 1dbe 87a4 2e3d 0c43 22be 88da 82bc
000002c0: 64db aaba 0b6f e7bb bf31 fabc 2ed0 693a
000002d0: b989 243d 4f2c 06bd 76a6 4c3c dfe1 ee3c
000002e0: 6cb6 7fbc eb34 52bd e732 7f3c 9c67 443d
000002f0: 2c18 c7bc 9f0a 5f3c 72ae 663c 140c 193d
00000300: 9c5a c6bc 31b6 d4bc 0477 eb3c 4311 63bd
00000310: fbbf 9fbc 3dae a1bc ae7d 24bd 7562 45bd
00000320: 7af1 2a3d 54a7 f8bd 5580 51bd 1433 00be
00000330: fc84 443d 6b7d 27be df6f cbbe 97f3 3cbd
00000340: be88 b5bd f2af 27bc ff8c 213e 47ea 0f3e
00000350: 88ca 063d f1c7 c3bd b0c7 5c3d 2f16 cdbd
00000360: b8ab 7cbe f415 45bd 8261 80bd 20d6 313c
00000370: eb76 af3c e38b 283e c5ba 3c3c 0f3f 273d
00000380: 1d26 863d 82cc 65bc a013 51be e2af 3abc
00000390: 5a09 e13d 5228 e6bb 8651 a4be 3569 e1be
000003a0: 3e2e 3ebe b196 6a3d b635 0b3d f7b8 443e
000003b0: dde7 78bd d848 3d3e b85e 093e 9014 83bd
000003c0: 64a6 8dbd ab5b abbc ebc0 8a3e d513 c83d
000003d0: 92d5 213c 332c 23be bd8c bbbd 0417 fb3c
000003e0: e376 8f3d af0e 1cbd 74bd 023e 0173 d53d
000003f0: 218b 2e3d 7998 e9bd 108b e13c c038 153e
0.007727775 0.01593504 0.0707206 0.11145944 0.07467407 -0.03342254 0.19506791 0.30098018
0.35733905 -0.017658662 -0.22179477 -0.16818099 -0.15853424 0.079363875 -0.013089023 -0.09619224
-0.09356317 -0.1413986 0.17778906 -0.09360177 0.052528616 -0.22780043 -0.103170365 0.036008626
-0.14502648 0.0088465875 -0.057815734 0.0014735603 -0.03166415 -0.0016166826 -0.17603353 -0.06321441
0.15509485 0.08383152 -0.036351547 -0.15590152 -0.41253954 -0.0022741894 0.06982058 -0.13829054
-0.013459347 -0.37319478 0.015617551 0.16655932 -0.27319145 0.031104937 -0.17371888 -0.062188506
0.28593057 -0.16204156 -0.0020467497 -0.05700349 -0.08928229 -0.048591785 -0.061318297 0.13991125
0.101405516 -0.23917897 -0.044361427 0.021773122 -0.15232907 -0.02661234 -0.06739523 -0.25259942
0.0067059267 -0.019599091 0.15315598 0.056375947 -0.20919596 0.066364266 0.111134335 0.28256828
-0.0770899 -0.26004246 0.055607144 -0.07932255 -0.111751586 0.024716353 0.022087451 0.1705277
0.0027703873 -0.15836392 0.08082197 -0.03937336 0.09747844 0.16177563 0.2374299 0.09648024
-0.007394463 -0.018956633 0.048531104 0.0489601 -0.2054825 -0.025198018 0.057421084 -0.057658628
0.10448959 -0.029366154 -0.0658487 0.13704193 0.048699 -0.062304243 -0.039676115 -0.12812114
0.044369414 -0.05194271 -0.17870533 -0.25863823 0.042416684 0.018559279 -0.15860271 0.017920772
0.011622862 0.07524355 -0.00014709836 0.20430556 0.31121072 -0.040634736 -0.13731372 0.032103077
0.30214232 0.07541347 0.011759707 0.0790111 0.122499935 -0.08179371 -0.20423244 -0.18162425
-0.055911347 -0.275913 0.015075652 -0.17658705 -0.111374564 -0.14506432 -0.06413088 -0.019350557
0.121738024 -0.08133011 0.046379354 -0.1794591 0.109822996 -0.09846418 -0.23647507 -0.15714689
-0.25728416 0.039103955 0.11366772 -0.06336834 -0.09189389 0.20053753 -0.08671491 -0.02517118
-0.07253529 0.0014647823 -0.06498836 -0.101158835 -0.06469636 0.0039607272 0.07251715 -0.06372725
-0.5658797 -0.4691019 -0.0075866147 0.069745496 0.018353084 0.12398293 0.3077881 0.24749377
0.09257327 -0.17458865 0.023707116 -0.02892595 -0.15414336 0.042637374 -0.15845889 -0.015973344
-0.0013035354 -0.007062798 -0.030541299 0.0008919266 0.040170405 -0.0327571 0.012490859 0.029160438
-0.015607458 -0.051319998 0.015576101 0.047950372 -0.024303518 0.013613372 0.014079677 0.037365034
-0.024213128 -0.025965782 0.028743275 -0.055436384 -0.019500723 -0.019736404 -0.04015892 -0.0481896
0.041734196 -0.1214129 -0.051147778 -0.12519485 0.047978386 -0.16356437 -0.39733788 -0.046130743
-0.08863972 -0.01023482 0.15776442 0.14054213 0.032907993 -0.0955962 0.053901374 -0.10013997
-0.2467488 -0.04811664 -0.06268598 0.010854274 0.02141901 0.16459613 0.011519139 0.04083162
0.06550238 -0.014025809 -0.20417643 -0.011394473 0.10988112 -0.0070238495 -0.32093447 -0.4402558
-0.18572327 0.057272617 0.03398677 0.19211183 -0.060767997 0.18484819 0.13415039 -0.06400406
-0.06916502 -0.020917734 0.2710031 0.09769408 0.009877579 -0.1593483 -0.09157703 0.030650623
0.07005098 -0.03809994 0.12767583 0.10422326 0.042613152 -0.11406035 0.02753213 0.1457243

bias f4 [120]
00000000: 628d 8c3e b33a a63e 742e 07bd 8267 9b3c
00000010: e33d 023e e535 a0bc 1070 8c3b 7a82 c33d
00000020: fb14 673e 07d5 6e3e 4aea 683d bd27 863d
00000030: 0552 653e 6315 ae3c 7874 003e 514d 86bd
00000040: f590 69bd 754e 153e 11df 063d a62d 26bd
00000050: 1547 d8bc d452 debb 8799 21be 88f0 6a3e
00000060: 0d46 67bd 9220 fd3c a5e5 8c3d f1c2 94bc
00000070: bf0d 963e 4ae8 30bc f310 80bd 5481 dcbc
00000080: bee9 5c3e 623a c83d 26aa c23e 43ec bbbc
00000090: 5186 073d a42e 2bbd 74c3 bc3b 7c49 523c
000000a0: eefd 293b 2554 383e 1950 ac3c 47a1 80bd
000000b0: 1403 6e3e 413e a23b 5b3a 963c 15a4 bd3c
000000c0: 5019 473e 19fe fbbd 3a50 3d3e 962d 84bb
000000d0: c8a2 383a 3a2a c93a 6696 b43a e258 643e
000000e0: aec9 c83c 6b3c 983e 5b55 2abd c96e 803e
000000f0: b972 323e 3bab d23a 67cf 6abd 6b24 153d
00000100: fd48 10bd 15de 103e c4aa 663d 0e65 8dbb
00000110: a7ea 52bd 210e ca3d cb39 48be 434a e4bd
00000120: 663f 94ba 1207 8cbd bdf3 173e dd02 b23d
00000130: d9c8 1dbd ca82 66bd 0ace df3e bbaf 44bd
00000140: 231d f23b be0c f0bc 11eb acbd bace ca3c
00000150: 6be0 0dbd e9f0 4cbd aa0b b3bd 706e fdbd
00000160: 4055 2bbc 2295 353e 2963 65bd f655 4e3d
00000170: e86f 093c c6e0 0ebd f90b 393e 47e7 81bd
00000180: 4172 a63d 859e 423e 8a1e 9a3e 4604 03bd
00000190: 7afd ee3c 7c1d 7dbd d193 86bd c3b1 c93d
000001a0: 73fb 71bd 72c4 a03d 7df8 1a3c 9673 203d
000001b0: 4bec 513c 0209 ddbb 5a45 573a 7c0e 713e
000001c0: b0e6 373e e7a8 43bc d863 b1bb 26d1 003d
000001d0: 8339 4ebd 0f28 45bc 0341 01be 5e0a 373e
0.27451617 0.3246666 -0.033003286 0.018970255 0.1271892 -0.019556949 0.00428582 0.09546371
0.22566597 0.23323451 0.05686406 0.06550548 0.22394569 0.021250432 0.1254443 -0.06557716
-0.057023007 0.1458071 0.032927576 -0.040570877 -0.026401082 -0.006784776 -0.15781222 0.22943318
-0.05646329 0.03089932 0.06879739 -0.018159362 0.29307362 -0.0107975695 -0.06253233 -0.026917137
0.2157354 0.09776761 0.38020438 -0.022939807 0.03308708 -0.041792527 0.0057606045 0.012834903
0.0025938707 0.18000849 0.021034287 -0.06280761 0.23243362 0.004951269 0.018338373 0.02314953
0.1944325 -0.12304325 0.18487635 -0.0040337546 0.0007043299 0.0015347668 0.0013777732 0.22299531
0.02451023 0.29733595 -0.041585308 0.25084522 0.17426576 0.0016072759 -0.0573267 0.036411684
-0.035225857 0.14147218 0.0563152 -0.004315025 -0.051493313 0.09865976 -0.19553296 -0.11146977
-0.0011310398 -0.06837286 0.14839073 0.086919524 -0.03852162 -0.056277074 0.43711883 -0.048019152
0.0073887273 -0.029302951 -0.08443273 0.024756778 -0.03463785 -0.050034437 -0.08742459 -0.1237458
-0.010457337 0.17732671 -0.05600277 0.050374947 0.008388497 -0.03488233 0.18070973 -0.06342941
0.08127261 0.19005783 0.30101424 -0.031986497 0.029173601 -0.061795697 -0.065711625 0.098483585
-0.05907769 0.07849969 0.009458658 0.03917273 0.012812684 -0.0067454586 0.00082119333 0.23540682
0.17959094 -0.011942125 -0.0054135136 0.03144946 -0.050347816 -0.0120334765 -0.12622456 0.17875049

weight f4 [84, 120]
00000000: 26cc 05bd f26c 6bba 9a77 b23d 030f fcbb
00000010: 3f74 c83d f82a ecbd d9e4 8e3d 1046 06be
00000020: 5177 e8bc 7a42 0c3d be13 f73d d97e 07bd
00000030: 40e8 b13d ae51 fb3b d710 0fbd 8329 613d
00000040: 04ad a53d 9989 e7bd bb1a 42bd 2c9a 363d
00000050: 7c15 83bd 56cb f0bc 3c4a 6a3d 0ad1 2fbe
00000060: bae6 4e3d b42d 2d3d 68c1 f3bd 0a32 693d
00000070: 294e cebc 1eff 78bd 1214 1e3c 0c2f 993d
00000080: f2af 1ebd 72ae 5abd 822c cabd c720 5a3e
00000090: 331b c13c 1c9a 5c3d 5c8c 6a3c 559e 6abd
000000a0: 29e6 a1bd f07c d2bc aab1 f73b 87f1 553c
000000b0: c62d bcbd ae0b 5c3d 48ae 11bd d272 8abd
000000c0: 2afb 4bbd 806a 18be 58bd 1d3d dd8f 9f3d
000000d0: a718 a4bd 66fd 6f3c d48f a73c 9684 9abd
000000e0: 3f2c 203d 17b9 b5bc d12d f73c a9d3 383d
000000f0: ad5e a63d eb50 803d 2f33 8b3d 4f98 babd
00000100: 54d0 b6bd e41c dfbd 6bfd 603c 77e3 4cbc
00000110: 40f0 98bd 60a0 8a3d 8e26 10be 8c94 a63d
00000120: edc5 3fbc ff58 8abc f4c0 53bd c51e c7bb
00000130: cc4b 82bd 8aeb 07bc 5141 fe3c 1c72 8dbd
00000140: 6a2e 203d 105a b3bd c352 96be 3df2 4bbc
00000150: c13f 4dbc a169 b93d 4323 5c3d d757 4e3b
00000160: 3f83 ecbc 5daa e73b 207d 20bc 504d 8c3d
00000170: 7928 94bd d8f5 85bc 161c 18be 7592 a0bd
00000180: c126 8e3c a6dd c03c 66cd 993d e3a5 d9bd
00000190: 5a3c 77bc cd14 9bbd 2757 81bd fd92 92bb
000001a0: 2b1a 683d 4839 a2bd 39f4 083c 01e7 183d
000001b0: 2101 3a3d a4ea 083d b2bc 75bd 361e 0b3d
000001c0: 7b10 e9bd 126d 8e3b 1944 903d 35ee 01bd
000001d0: 4db1 9e3d 4d7e ce3c 193e f9bd 9a89 e9bc
000001e0: c078 3d3e 8248 553d 8ac4 e03c 6259 55bc
000001f0: 505b 04be ac54 f53d 76fe a83d 00ae afbd
00000200: f613 283d 8e75 b6bb 0996 8b3e 610d 6ebd
00000210: c8f2 0cbe 44cc 0ebd 16a7 a73d fca2 76b9
00000220: a444 81bd c42e 893e 1c71 963d 3f9d ba3d
00000230: e37d 543d feef b7ba e06b ae3d 94e5 2d3d
00000240: b3dc 69bc 387d 8d3c 84e3 6d3d da1a 113d
00000250: 7603 a7bc 030e 42bc 6db1 31bd 5c7d 51bd
00000260: 7ecb 95bd 83bf 6c3e 8d5f f5bd 7e7e 433e
00000270: 8a00 92bc 33ea 193d 62db 34bc 1310 b3bd
00000280: 3b85 ddbd a1d0 c03e f3ff 973d 000a 2fbb
00000290: 2655 1ebe 33b0 863d 6932 49bd 205f 83bd
000002a0: a0c6 febd 5d79 333d df25 c13d 274b 893d
000002b0: ef77 04be 8a87 333d 9036 51bd 43c6 a53d
000002c0: fefe 4bbd f524 c2bd 917a 5d3d 877f 2ebe
000002d0: ad8b a9bd c23e 57bd 392a 97bc 0001 b6bb
000002e0: eaaf 1e3d 3fec c23e e6c2 0dbc 9415 513d
000002f0: 2ae4 4d3d a74f 743e b738 5a3e b028 573c
00000300: 0d89 5abd 0a56 fcbc 9444 de3d 0f67 f83d
00000310: 12ea 4d3d 051b 4dbb 0e63 9d3d 61a8 25bd
00000320: 5b98 25bc 92e3 4d3d 54dd 043e 813b 373d
00000330: 0351 2c3c 2d69 2fba b05a be3c 8de1 333e
00000340: 0776 2b3d 97eb 2f3e 2ea0 da3c a0e8 4ebe
00000350: e618 04be fb78 75bd 3308 593e 5d36 0f3e
00000360: 8f98 003e c1de 4dbe c904 0bbe 33ae f0bc
00000370: a283 4c3d 3744 513d 0189 25bd b19b 813e
00000380: b0ac 73bd 7754 923d 423f 67bd 6c0e d93c
00000390: f17e 21bd 7e69 793c 7401 653d a3c3 ab3d
000003a0: bd3f a3bd 78d7 8f3c 5b61 823d b5a5 1dbd
000003b0: ecba 7bbd 6674 a4bd 4dab d93d cc54 1cbd
000003c0: d476 96bd 309a 633e b2f1 4fbc 5a45 ddbc
000003d0: 7028 a9ba 0fe6 433d 2e84 7a3b 7aba dabe
000003e0: 9f64 bb3d 69e0 ca3d 61c6 963d 2d0b aabe
000003f0: f62f e83d 7d8d 1ebd 4fd6 093e cd13 bcbb
-0.032665394 -0.00089807727 0.087142184 -0.007692219 0.09787797 -0.11531633 0.06977243 -0.13112664
-0.028377207 0.034243084 0.120643124 -0.033079956 0.08686876 0.007669649 -0.03492817 0.05497123
0.08089641 -0.113055415 -0.047388773 0.044580624 -0.06400582 -0.029393833 0.0571997 -0.17169586
0.050513007 0.042279914 -0.11902124 0.056932487 -0.025183754 -0.060790174 0.00964834 0.074796766
-0.038742013 -0.05338902 -0.098717704 0.21301566 0.02357254 0.053857908 0.014315691 -0.057279903
-0.07905228 -0.02569434 0.007559021 0.013058073 -0.09188418 0.053722076 -0.0355666 -0.067601815
-0.049800076 -0.14884377 0.03851065 0.077911116 -0.080125146 0.014647817 0.020454325 -0.0754482
0.039104696 -0.022182984 0.030173214 0.04512373 0.08123527 0.06265434 0.06796872 -0.09111082
-0.08926454 -0.10894182 0.013732295 -0.012505404 -0.07467699 0.0676887 -0.14077207 0.08133802
-0.011704904 -0.01688814 -0.051697686 -0.006076666 -0.06362113 -0.008295903 0.031037005 -0.0690653
0.039106764 -0.087574124 -0.29360017 -0.012447891 -0.012527407 0.0905335 0.053744566 0.0031485462
-0.028871177 0.0070698694 -0.009795457 0.06850684 -0.07234282 -0.016352579 -0.14854464 -0.078404345
0.017352464 0.02354319 0.0750988 -0.106273435 -0.0150900725 -0.07572327 -0.06315451 -0.004473089
0.05666558 -0.07921082 0.0083590085 0.037329677 0.045411233 0.033426896 -0.059994407 0.03396436
-0.113800965 0.0043464983 0.070442386 -0.031721313 0.07748661 0.02520671 -0.12170047 -0.028507996
0.18503094 0.052071102 0.027437467 -0.013021799 -0.12925458 0.119790405 0.082516596 -0.0857811
0.04103466 -0.005568213 0.27262905 -0.058118228 -0.13764489 -0.03486277 0.08186166 -0.00023521105
-0.0631192 0.26793492 0.07345793 0.091120236 0.051877867 -0.0014033315 0.08516669 0.04245527
-0.01427381 0.017271623 0.058078304 0.035426 -0.020387392 -0.011844161 -0.043382097 -0.051144943
-0.07314204 0.23119931 -0.119811155 0.19091222 -0.017822523 0.037576865 -0.011038633 -0.087433
-0.10816427 0.3765917 0.07421865 -0.0026708841 -0.15462169 0.06576576 -0.04912034 -0.06414628
-0.124402285 0.043816913 0.094310515 0.06703787 -0.12936376 0.043830432 -0.051077425 0.08094456
-0.049803726 -0.09479705 0.054071967 -0.17040835 -0.08278594 -0.052550085 -0.01845275 -0.0055543184
0.038741983 0.38070866 -0.008652424 0.05104597 0.050266422 0.2385851 0.21310697 0.013132259
-0.053353358 -0.030802745 0.10852924 0.12129032 0.050272055 -0.0031296622 0.07684909 -0.04044378
-0.010107125 0.050265856 0.12975055 0.04473448 0.010517362 -0.00066913926 0.023236603 0.1756651
0.041860607 0.17179714 0.026687708 -0.20205927 -0.12900123 -0.05992983 0.21194534 0.13985582
0.12558196 -0.20104505 -0.13576044 -0.02937994 0.049930222 0.051090445 -0.04041386 0.25314096
-0.05949086 0.07145017 -0.05645681 0.026496135 -0.0394277 0.015222905 0.05590959 0.08386924
-0.079711415 0.017558798 0.06366225 -0.03848811 -0.06145756 -0.08030014 0.10628376 -0.038166806
-0.073468834 0.22226787 -0.012691902 -0.027010608 -0.0012905728 0.047826823 0.0038225758 -0.42720395
0.09150051 0.09906084 0.073620565 -0.3321165 0.11337273 -0.038709152 0.13460658 -0.005739665

bias f4 [84]
00000000: 2688 43be c628 91bc 6698 403d fd39 4e3e
00000010: 5a2d b7bc 89f0 8c3e e81c 503d 5869 8b3d
00000020: e47a 11bd 98c3 ebbc 1912 be3c 0b51 a8bd
00000030: 0587 473d 59a7 1d3e c244 463e 6d8f b5bd
00000040: 917d f03d d1d6 b3bd b335 113e db14 063b
00000050: 9f80 d63d 5edb f83d 0cfa cabc 88e7 89bd
00000060: 05a2 5fbd 05a1 123d 880a 2bbd 9c10 1f3e
00000070: 3f69 3bbd a66a aebd 0873 1b3e 0299 d1bd
00000080: 172d 773e 5765 96bc cd3e 70bd 8177 c2bd
00000090: 8780 92bd 973b bbbd f123 803e 1036 b8bd
000000a0: 47b1 c23d f5bb 69bd 7849 343d 24e9 bc3d
000000b0: 5291 ac3e 7206 283d 9a67 123e efcb 283d
000000c0: 3371 94bc 3e50 533e d1b0 0dbe 7b86 a33e
000000d0: 1ee6 303d d4f6 4c3e 8eb8 153e b104 3e3d
000000e0: 40fb fabd 5728 143e be2e 5fbd 57f2 4cbd
000000f0: acc8 d0bc b8ea 473e 3fad 913d 31e4 79bd
00000100: 1892 443e b87c 523e c486 01bc f981 2c3d
00000110: fb0d 83bd 12bb 92bd f6a2 a23b 3f12 0d3e
00000120: 24a6 773d 235d 8a3d a2b5 a03d 94bb 3a3b
00000130: feb4 433d 8736 303e 796a 443d 3eee f0bc
00000140: 174b a33e 8edc 503e b58c aabd 4789 913e
-0.19094905 -0.017719638 0.04702034 0.20139308 -0.022360492 0.27527264 0.050808817 0.06807202
-0.03551759 -0.02877979 0.023201989 -0.08218583 0.04871275 0.1539587 0.19362167 -0.08865247
0.117427 -0.08781207 0.14180641 0.0020459208 0.10473751 0.12151216 -0.024777435 -0.06733614
-0.054597873 0.03579809 -0.04175809 0.1553368 -0.045754667 -0.08516435 0.151806 -0.10234262
0.24138294 -0.01835887 -0.05865364 -0.0949545 -0.07153421 -0.09142225 0.2502742 -0.089946866
0.09506469 -0.057064015 0.044015378 0.092241555 0.3370462 0.04102177 0.14297333 0.04121011
-0.018120384 0.20636079 -0.13836981 0.31938538 0.043188207 0.20016032 0.14621183 0.046391193
-0.122549534 0.14468513 -0.054487936 -0.0500358 -0.025486313 0.19523132 0.07113122 -0.061008636
0.19196355 0.20555389 -0.007905666 0.04211614 -0.06399151 -0.07164587 0.004963274 0.13776492
0.06046118 0.06756046 0.07847144 0.0028493153 0.04778003 0.172083 0.047953103 -0.029410478
0.31893227 0.20396635 -0.08327619 0.28425047

weight f4 [43, 84]
00000000: 4651 9c3d 4230 543d ff10 29bf 92e7 533e
00000010: 558b 05bf cf7a f6be 7941 94be 6b30 c2bc
00000020: 4092 c4bd 5131 a9bc 8276 fb3b 5b7a babd
00000030: fce4 853d 0662 b9bd 3151 523e 0c1f 72bd
00000040: ce9d 35bf 22da 80bd 63e0 203e 31bc 02be
00000050: c8ff de3d 092b 7ebe 5f7a a3bd fc7e 873d
00000060: e081 f03d 07a2 313d 8288 6abc bec8 3e3d
00000070: 38c6 e9bd 9883 b2bd 3bbd c6bd 6ff3 4c3c
00000080: f08e f83c bd72 b6bd 9737 05be 3780 1e3d
00000090: ce15 c8be bfb4 d83d 9d6f 8a3c a698 263e
000000a0: 55ba 63bc 2d69 6fbd 9b05 c73d bb9c 3fbc
000000b0: 047c b1be ebbe eb3d 6d22 2e3c 827c 643d
000000c0: ecf2 973d 3aca 8cbe 24b0 abbd 829f 03be
000000d0: e470 e4bd 0c9a 86be 5f24 a3be 594c 5bbd
000000e0: e205 6ebd 73eb 9a3d 614b 8dbd 889a 903d
000000f0: a8de f33c f78e b3bd 4800 543b 0fb0 ecbd
00000100: 4d98 55bf 607e 29bf 1b43 993d 9797 d13d
00000110: 922c 61bc 085b 42bd d1ff 293e 961d 9bbe
00000120: e499 033e b335 573e 12a6 093e cf1d 763c
00000130: 141d 753d af81 bebe 8d59 d23d 73a6 923d
00000140: bcc1 d4be 1d5a d8be d635 1cbe 6917 193d
00000150: 255a dabd 143e cbbc c417 77be 71b5 3f3e
00000160: 06a9 30be 0c67 dfbe 7608 3abe c6a9 69bd
00000170: e2fc 2ebd eab8 1cbd dae9 dabc 6ae1 b4bd
00000180: 2691 4abd 7dcf 1f3e b21f 4fbe c172 bbbd
00000190: 1106 c3be 7695 b83d ce88 e43d 4ed1 afbe
000001a0: 42ed 1ebd 50d1 5e3d f009 fdbc 28a6 0abe
000001b0: a052 f53d bc12 1f3c dd2f d33d cc85 dc3d
000001c0: 2976 9f3d 17b9 40bd c24c bcbd 3541 953d
000001d0: d67d 15bd 736e 6abb e027 6ebe 2621 a43d
000001e0: cae4 dfbe abbb 2e3d d72a 993c 26a0 18be
000001f0: 63e1 5dbd 64e2 3f3d 4b8d e4ba d2f5 3f3e
00000200: efdf 8ebe 4714 143e 36bd 2f3d 3e11 493d
00000210: e6fa f93a cd71 5ebd 5059 17bd 3c85 d1bd
00000220: 008e 9c3d 1163 b8bd 95ea 14be 0e5f a2bd
00000230: 019f 0a3d bbe6 283e 5db1 eebd 5b18 1fbd
00000240: dba5 a2bd 0631 01be ee3c 8abe 2698 5cbc
00000250: b4a8 5cbe 8b6d 18be 9a21 01bd c34a 86be
00000260: 97db b83d 6329 d1bd 190e c23d 419a 003e
00000270: a9f0 a33d 2332 413e 5fe2 0c3e 7701 37bd
00000280: b489 0c3e 3866 1dbd 4656 373d e549 ddbd
00000290: c86c d13a 86fd 40bd 6cba 993c f8c3 553e
000002a0: ca1a 81bd 6e2b e03c b3d7 88be 490a e83d
000002b0: dd04 3e3d 8b86 08be 4b18 ff3d b1f2 40bc
000002c0: b03e b53c 390d 50bd 5a85 c4bc 1b7d 19bd
000002d0: 4ce4 e23a cba8 953b b885 72be 4d46 f1bc
000002e0: 04d0 7dbe 6770 8e3d 0b3c 3a3c 0fd3 823d
000002f0: 98f3 27be 0b59 8d3e 73d1 abbd a56a 0c3c
00000300: ca65 d4bd 6e1a 293b 5ece a1bd 834b e73d
00000310: f8f2 773c 4e6b 303d 0c96 0c3e 6546 97bd
00000320: ccbe ed3d e9ff aabd fbca 7f3d fdf3 f03b
00000330: 9fcc c1be d84b 6fbd f6ba 0f3d 481b 9bbe
00000340: 5db6 da3d 94fc 87bd ccd9 00be dae4 013e
00000350: 370e a6bd 3d9c 02be 28a8 bb3d e527 283d
00000360: cf1b 1dbd d232 833d 7eb1 c5be 6e32 b2bb
00000370: d75c 95bd 42a5 60bd ae96 5dbd 236e 86bc
00000380: 753d c6bc 3a42 9c3d 86a5 dfbc 59b1 2e3d
00000390: 3b19 57bc 1776 97bd 9862 12be 6f3a babd
000003a0: 391d 93be 7d5b 033d c659 cf3d 662c e0be
000003b0: 8f0e 40bd a373 003d bc7a 83bd 5751 f5be
000003c0: b0a6 a9bd 3f47 183d b521 8f3d f9e7 33bd
000003d0: 5f54 0a3e 3971 a5bb 77ca 10be a2a7 aebd
000003e0: f166 6d3c 2a4f 243d 0e89 913c e1d9 e03d
000003f0: 9091 ad3d b7b2 f63d 901b ddbe 5de3 81be
0.07632689 0.051803835 -0.6604156 0.20693806 -0.5216573 -0.4814057 -0.28956202 -0.023704728
-0.095982075 -0.020653399 0.0076740393 -0.09105369 0.06537816 -0.090518996 0.20538785 -0.05911164
-0.70943916 -0.062916055 0.15710597 -0.12767102 0.1088863 -0.24821104 -0.07982325 0.06616017
0.11743522 0.043367412 -0.014314773 0.04657816 -0.1141476 -0.08716506 -0.097040616 0.012509211
0.030341595 -0.08908603 -0.13009487 0.038696494 -0.39079136 0.105813496 0.016898924 0.16269168
-0.0138994055 -0.058449913 0.09717866 -0.011695082 -0.3466493 0.11511024 0.010628325 0.055782802
0.074193805 -0.27498037 -0.083832055 -0.12853816 -0.11154345 -0.26289403 -0.31863686 -0.053539608
-0.05811108 0.075644396 -0.06899143 0.070607245 0.029769257 -0.08767503 0.00323488 -0.11557018
-0.8343552 -0.6620846 0.074835025 0.102339916 -0.013743537 -0.047450095 0.16601492 -0.3029601
0.12851673 0.21016578 0.13442257 0.015021755 0.059842184 -0.37208316 0.10270987 0.07160654
-0.41554058 -0.4225625 -0.15254912 0.03737584 -0.10661725 -0.024809875 -0.2413016 0.18721558
-0.17251977 -0.43633306 -0.1816729 -0.057046674 -0.042721637 -0.038262285 -0.026722837 -0.08832057
-0.04945483 0.15606494 -0.20226935 -0.09152747 -0.38090566 0.090128824 0.11158906 -0.34339374
-0.038800485 0.054398835 -0.030888528 -0.13539946 0.1197865 0.0097090565 0.103118636 0.10767707
0.07786209 -0.047051515 -0.09194328 0.07287828 -0.03649696 -0.00357714 -0.23257399 0.08014135
-0.4372924 0.042659443 0.018697185 -0.14904842 -0.054170024 0.046846762 -0.0017437128 0.18746117
-0.27905223 0.1446086 0.042905055 0.04908871 0.0019071966 -0.054307748 -0.03695041 -0.102304906
0.07644272 -0.090032704 -0.14542611 -0.079282865 0.033843044 0.16494267 -0.11654923 -0.038841587
-0.07941791 -0.12616357 -0.2699961 -0.013464009 -0.2154873 -0.14885537 -0.031526186 -0.26228914
0.090262584 -0.10212972 0.09475345 0.12558843 0.08004887 0.18866782 0.13758229 -0.04467913
0.13724405 -0.03842756 0.04476001 -0.1080511 0.0015977854 -0.04711678 0.01876565 0.20875537
-0.06303938 0.027364459 -0.26727065 0.11330087 0.046391357 -0.13332574 0.124558054 -0.011776612
0.022124618 -0.05079386 -0.023989368 -0.037472825 0.0017310469 0.004567241 -0.23683822 -0.029452467
-0.24786383 0.06955033 0.011366854 0.063879125 -0.16401517 0.27606997 -0.08389559 0.008570348
-0.10370977 0.0025803107 -0.079006895 0.112936996 0.015133612 0.043071084 0.13729113 -0.073864736
0.11608657 -0.08349592 0.062449437 0.0073533044 -0.37851426 -0.05842194 0.03509041 -0.3029425
0.10679314 -0.06639972 -0.12583083 0.12684956 -0.0810818 -0.12754913 0.09162933 0.04105367
-0.0383566 0.064061776 -0.38611978 -0.0054381406 -0.072930984 -0.054845102 -0.054098777 -0.01640994
-0.024199227 0.07629819 -0.027300607 0.0426496 -0.013128574 -0.07395571 -0.14295423 -0.090931766
-0.28733233 0.032069672 0.10124545 -0.43783873 -0.046888884 0.03136028 -0.06419894 -0.4791362
-0.08283746 0.03717732 0.06988851 -0.0439224 0.13508748 -0.0050488976 -0.14139734 -0.08528067
0.014489875 0.04011456 0.017765548 0.10979057 0.084750295 0.12045806 -0.4318509 -0.25368777

bias f4 [43]
00000000: 7ba7 57be c08f 8b3d aaf9 2a3d d67c f83d
00000010: 00e1 2c3e c1fc 0cbe 5d2f 243e bc00 dbbc
00000020: 88f9 a13d fce7 06bd 854d 173e b7d8 73bd
00000030: 44e9 143e f0b0 1b3c 432b 2fbe fba8 60be
00000040: 4b8f 75be 4ba4 3abe ff39 663e 1d87 363d
00000050: ffb7 143e dbd8 56be 3e5d 8cbe 763d b7bd
00000060: d7ea a33d c3e6 5cbd 520d 49be 139a dd3d
00000070: 9237 83be 9d5c 3bbc 09bb 173e e220 653e
00000080: 2b18 893e 493f aebd dec6 81be 37a6 21be
00000090: c1f0 123e d388 b6bd 4f92 863d fe3b 2fbe
000000a0: c29e c93d d7cf 38be e402 c8bd
-0.21059982 0.068145275 0.041742004 0.121331856 0.16882706 -0.13768293 0.16033693 -0.026733749
0.079089224 -0.03293608 0.14775665 -0.059532847 0.14542109 0.009502634 -0.17106347 -0.21939461
-0.23980443 -0.18226735 0.22483061 0.044562448 0.14523314 -0.20981161 -0.27414888 -0.089472696
0.080037765 -0.05393101 -0.19633988 0.10820403 -0.25628334 -0.011435655 0.14817442 0.22375825
0.2677625 -0.085081644 -0.25347036 -0.15786062 0.14349653 -0.08912816 0.06570875 -0.17112729
0.09844734 -0.18048035 -0.09766176
